Models/best_model.pt (torch, 184930 bytes, 11 tensors)

conv1.weight f4 [32, 22, 5]
0	0xbe573908	-0.2101785
1	0xbe72dd6e	-0.23717281
2	0xbe4f6ae0	-0.20255613
3	0xbe8c39e1	-0.27387908
4	0xbe553aea	-0.20823255
5	0x3d10adf2	0.035322137
6	0xba96c98b	-0.0011504156
7	0x3c8d9439	0.017282592
8	0x3c07ce52	0.008288937
9	0x3b59b9dc	0.0033222353
10	0xbd9b58ba	-0.075852826
11	0x3bb7e00f	0.0056114267
12	0xbc8c36af	-0.017115919
13	0xbd9e4610	-0.07728207
14	0xbc1a3653	-0.009412366
15	0xbc255041	-0.010089935
16	0xbdd9b5b3	-0.106303595
17	0xbe12532a	-0.14289537
18	0xbe17079e	-0.14749
19	0x3b307371	0.0026924277
20	0xba0d712f	-0.0005395589
21	0xba71f8a9	-0.00092304737
22	0xbd17b564	-0.037038222
23	0xbdc73c92	-0.0972835
24	0x3d6e8ad5	0.05823787
25	0xbdfd60a5	-0.12371949
26	0x3c3fd301	0.011708022
27	0xbd9a4a1b	-0.07533666
28	0x3d569455	0.052387554
29	0xbcba2946	-0.022724759
30	0xbd69e988	-0.05710748
31	0x3d620c84	0.055187717
32	0x3dcff1ff	0.10153579
33	0x3ba19d01	0.0049320464
34	0x3ccd82b5	0.02508674
35	0xbdb4a8a5	-0.08821229
36	0xbcb92e5c	-0.022605114
37	0x3cffc02d	0.031219566
38	0x3d238c1f	0.03992855
39	0x3ddfe613	0.10932555
40	0xbd43303a	-0.047653414
41	0xbcfe8049	-0.03106703
42	0x3d285f2b	0.041106384
43	0x3daaf68b	0.083478056
44	0x3d8d8589	0.069102354
45	0xbde96720	-0.11396623
46	0x3cf95eb8	0.030440673
47	0xbc559ad1	-0.013037399
48	0xbd7ce9a1	-0.061746243
49	0x3cf7c7bb	0.030246606
50	0xbd0a9ca3	-0.033840787
51	0xbdc0df0e	-0.09417544
52	0x3daaff58	0.08349484
53	0xbc72382c	-0.0147839
54	0x3b4c6567	0.003118837
55	0xbd25cfc7	-0.040481355
56	0xbcb44314	-0.022004642
57	0x3d218dc0	0.039441824
58	0x3dfb160f	0.12260067
59	0x3e1092e5	0.14118536
60	0x3ddd3902	0.10801889
61	0x3d563854	0.052299812
62	0xbbef187c	-0.00729662
63	0x3d3f1563	0.046651255
64	0x3de353ed	0.11099992
65	0x3c12d58a	0.0089620445
66	0x3d101199	0.035173032
67	0x3d53b3aa	0.051685013
68	0x3dc6909b	0.0969555
69	0x3d48befa	0.049010254
70	0xbd113db0	-0.03545922
71	0x3d7ecd83	0.06220771
72	0x3e208a9c	0.15677875
73	0x3dacda53	0.084400795
74	0x3e02e845	0.12783916
75	0x3d0450bb	0.032303553
76	0xbd49a050	-0.04922515
77	0x3dc1da4d	0.09465466
78	0xbba1f729	-0.004942794
79	0x3e0a3804	0.13497931
80	0x3d45590d	0.04818063
81	0x3d1fefe3	0.039047133
82	0xbce31024	-0.027717657
83	0xbcd1d517	-0.025614304
84	0xbd58c8d0	-0.052925885
85	0xbd80e576	-0.06293766
86	0x3d790774	0.060798123
87	0x3d40099c	0.046884164
88	0x3da49f30	0.08038175
89	0x3d22e4f2	0.03976912
90	0x3cf8160b	0.030283948
91	0xbc9710d7	-0.018440647
92	0x3bad268d	0.0052841366
93	0x3c55afb7	0.013042382
94	0x3d01beb1	0.031675998
95	0x3dc756ba	0.09733339
96	0xbd7b5ceb	-0.06136791
97	0x3d5534e5	0.052052397
98	0xbccd58db	-0.025066784
99	0x3cf2f77f	0.029659031
100	0xbbdd396b	-0.0067512295
101	0xbd416914	-0.04721935
102	0xbdbd93cd	-0.092567064
103	0xbc0490b1	-0.008091138
104	0xbaaba6c5	-0.0013095966
105	0x3dcbc35c	0.09949371
106	0x3dcd00ec	0.100099415
107	0xbd0abd86	-0.03387215
108	0xbd96e947	-0.07368713
109	0xbc49753d	-0.012296018
110	0xbc96511c	-0.018349223
111	0xbe00403f	-0.12524508
112	0xbd4c1053	-0.049820255
113	0xbe160bc4	-0.14652926
114	0xbdaa8af9	-0.08327288
115	0xbdb01834	-0.085983664
116	0xbabb8e6c	-0.0014309413
117	0xbdfa1fb3	-0.122130774
118	0xbd5cb94b	-0.053887647
119	0xbdf21825	-0.118210115
120	0x3d247288	0.040148288
121	0x3cb9600b	0.022628805
122	0x3d42db1a	0.047572233
123	0x3cee4212	0.02908424
124	0xbd35c227	-0.04437461
125	0xbd4647e1	-0.048408393
126	0x3d72d803	0.059288036
127	0x3d985931	0.07438887
128	0x3d25d05c	0.04048191
129	0x3d8afb05	0.067861594
130	0x3ce1812f	0.02752742
131	0x3d9d0d1a	0.076685145
132	0x3c844e3c	0.016150586
133	0x3d03ea22	0.03220571
134	0x3cc8e77e	0.024524447
135	0xbc1a8f9b	-0.009433652
136	0xbd56e168	-0.052461058
137	0xbcef058a	-0.029177446
138	0x3c9a427d	0.018830532
139	0xbd35784f	-0.04430419
140	0x3ce2aae1	0.027669372
141	0x3d0faa22	0.03507436
142	0xbb95d653	-0.0045726686
143	0x3d942523	0.07233646
144	0x3d32a7ef	0.043617185
145	0xbd90c64a	-0.07069071
146	0xbd90b540	-0.07065821
147	0x3d1fb85a	0.03899417
148	0x3cbc2518	0.022966906
149	0x3d048249	0.032350812
150	0x3cada2bc	0.021195762
151	0xbd97a3cd	-0.074042894
152	0xbda3fb61	-0.08006931
153	0xbddcffad	-0.10790954
154	0xbc6df300	-0.014523268
155	0xbc12e389	-0.008965381
156	0x3d093408	0.033496886
157	0xbd939fb6	-0.07208197
158	0xbe0f72fa	-0.14008704
159	0xbc367a2a	-0.011137525
160	0x3d98177e	0.07426356
161	0x3d43c241	0.047792677
162	0x3cde47dc	0.027133875
163	0xbcae18f1	-0.021252127
164	0x3d881fb9	0.066466756
165	0x3db46b67	0.08809548
166	0x3d482184	0.048860088
167	0x3dc03f0c	0.09387025
168	0xbd2b3065	-0.0417942
169	0xbd394be4	-0.04523839
170	0xbe20eff7	-0.1571654
171	0xbd14f9a8	-0.036370903
172	0xbd7eeb32	-0.06223602
173	0x3c5e8fa4	0.013584051
174	0xbb4f22b1	-0.003160637
175	0xbdf4cda1	-0.11953283
176	0xbd745d89	-0.059659515
177	0xbe052961	-0.13004066
178	0xbc5ded57	-0.013545356
179	0xbdfa0c06	-0.122093245
180	0xbc38744a	-0.011258194
181	0x3ddad249	0.1068464
182	0x3d125c3d	0.035732497
183	0xbb0685fe	-0.0020526643
184	0x3d1ce8fc	0.03830813
185	0xbd0f31f3	-0.034959745
186	0x3c89bdf1	0.016814204
187	0xbd083766	-0.033255957
188	0x3d5fbf52	0.054625817
189	0x3cdb5b00	0.02677679
190	0x3b392868	0.0028252844
191	0x3d315495	0.043293554
192	0x3ccd5a35	0.025067428
193	0x3d8ceb75	0.06880847
194	0x3d4688d4	0.048470333
195	0xbdab6c40	-0.083702564
196	0x3d9e8e9e	0.07742046
197	0x3da125db	0.078685485
198	0x3ccb23ff	0.024797438
199	0x3c2eb2b3	0.010662722
200	0x3d4e0b6b	0.050303858
201	0xbd49e6c8	-0.049292356
202	0xbe09ee65	-0.13469847
203	0xbdc6e624	-0.097118646
204	0xbdec12c5	-0.115270175
205	0x3da2565d	0.07926629
206	0x3d4fe1da	0.0507525
207	0x3d0f36f2	0.03496451
208	0x3d7f29a1	0.06229556
209	0x3de35d98	0.11101836
210	0xbd766cb6	-0.06016227
211	0x3ca58713	0.02020601
212	0xbca702af	-0.020387022
213	0xbd305342	-0.04304815
214	0x3ddd4455	0.10804049
215	0xbe16f971	-0.14743592
216	0x3d11b39b	0.035571676
217	0xbd349a43	-0.044092428
218	0x3c0358ca	0.008016774
219	0xbd18d6c0	-0.037314177
220	0xbddd3633	-0.10801353
221	0xbcf521fa	-0.029923428
222	0x3c18cca7	0.009326137
223	0xbd7f1d5e	-0.062283866
224	0xbda6b435	-0.081398405
225	0x3df506c7	0.11964183
226	0x3c74a479	0.014931791
227	0x3ded4b30	0.115866065
228	0x3dca7377	0.098853044
229	0x3c7910a5	0.015201722
230	0xbbd6bf57	-0.006553571
231	0x3d8a1114	0.06741539
232	0x3d34c7a8	0.04413572
233	0xbbfb7d41	-0.0076748435
234	0x3d2569be	0.040384047
235	0x3bcc0f66	0.0062274216
236	0xbe00c75c	-0.1257605
237	0xbccf4999	-0.025303649
238	0xbda8ea53	-0.08247819
239	0xbd2d2050	-0.042267144
240	0x38657855	5.4709923e-05
241	0x3d176e81	0.03697062
242	0xbdecc19e	-0.11560367
243	0xbc218aab	-0.009859721
244	0x3da78144	0.08178952
245	0xbd823a9a	-0.063588336
246	0xbd878307	-0.06616788
247	0xbd92944a	-0.0715719
248	0xbcb7c6e0	-0.022433698
249	0x3c5e94c6	0.013585275
250	0x3db3d594	0.08780971
251	0x3d35e8d1	0.044411484
252	0x3d8d9432	0.06913032
253	0xbcbc5f7d	-0.022994751
254	0xbd20e4c2	-0.03928066
255	0x3c499a13	0.012304801

conv1.bias f4 [32]
0	0xbd01d302	-0.031695373
1	0xbdf5e38b	-0.12006291
2	0xbd483bf4	-0.0488853
3	0xbe457124	-0.19281441
4	0xbd69b54d	-0.057057668
5	0x3d394cad	0.04523914
6	0xbd8abe21	-0.067745455
7	0xbcd9447a	-0.02652191
8	0xbda4ce04	-0.08047107
9	0xbdade530	-0.0849098
10	0xbe1eb968	-0.15500414
11	0xbd9f6845	-0.0778356
12	0xbc928b3f	-0.017888663
13	0x3d8cbba3	0.06871726
14	0x3cbfa327	0.023393227
15	0xbe175528	-0.14778578
16	0x3d4f9019	0.05067453
17	0xbe0e27e0	-0.13882399
18	0x3ddd32a3	0.10800674
19	0x3c52c667	0.012864686
20	0xbe28c2de	-0.16480586
21	0xbdb63472	-0.08896722
22	0xbdfe069f	-0.124036066
23	0xbc302c02	-0.01075268
24	0x3caa4d6b	0.020788869
25	0xbdecbcd0	-0.115594506
26	0xbde76f10	-0.1130048
27	0x3dc0e348	0.094183505
28	0xbe00702a	-0.12542787
29	0x3ce5b9e0	0.028042734
30	0x3dab4f7c	0.0836477
31	0xbe162431	-0.14662243

conv2.weight f4 [64, 32, 3]
0	0x3da47b50	0.080313325
1	0xbb272d62	-0.0025509228
2	0x3d42b27d	0.0475335
3	0xbd0aecde	-0.0339173
4	0xbd0441fb	-0.032289486
5	0xbdb980e2	-0.090577856
6	0x3cd0c326	0.025483679
7	0x3d20b500	0.039235115
8	0x3cecc773	0.028903699
9	0xbdd30721	-0.10304094
10	0xbd2875a9	-0.041127834
11	0xbdb4ac07	-0.08821874
12	0x3e03b396	0.12861475
13	0x3dc697fb	0.09696957
14	0x3e02ac73	0.12761097
15	0x3dee1eba	0.116269544
16	0x3c726b13	0.014796036
17	0x3cd8d2c5	0.02646769
18	0x3d32ef50	0.043685257
19	0xbdbf1527	-0.09330206
20	0xbda573c1	-0.08078719
21	0xbe6dc3dd	-0.23219247
22	0xbdbde192	-0.0927154
23	0xbe1ca77d	-0.15298267
24	0xbe21429d	-0.15748067
25	0xbd22d513	-0.039753985
26	0xbc363315	-0.011120577
27	0x3e02497a	0.12723342
28	0x3c3ba6e5	0.011453365
29	0x3da7008d	0.08154402
30	0xbd6e2f00	-0.05815029
31	0x3d918ab8	0.071065366
32	0x3d1eed96	0.0388008
33	0x3dbe5125	0.09292821
34	0x3c348d00	0.011019945
35	0x3e0644f1	0.13112237
36	0x3d34274e	0.043982796
37	0x3d58fc08	0.05297473
38	0xbd2115fb	-0.039327603
39	0xbdbd9c23	-0.09258296
40	0xbd23ffc6	-0.040038846
41	0xbde60f88	-0.11233431
42	0x3dd75e13	0.1051599
43	0xbd0dfee9	-0.03466693
44	0xbd502094	-0.05081232
45	0x3d897b2b	0.067129456
46	0x3d7bd874	0.061485723
47	0x3cc57393	0.024102962
48	0xbd5f0124	-0.054444447
49	0xbd0899d9	-0.033349846
50	0xbb70d710	-0.003674928
51	0x3e68422f	0.22681497
52	0x3e801831	0.25018457
53	0x3e8634e4	0.26212227
54	0xbd84c3f9	-0.06482691
55	0x3c061e3e	0.008185921
56	0xbc01c645	-0.007920806
57	0x3c07dfe8	0.0082931295
58	0x3d4c35e5	0.049856085
59	0xbd916382	-0.07099058
60	0xbc1946a9	-0.009355226
61	0xbdba3b0e	-0.09093295
62	0xbdb42ac0	-0.087972164
63	0x3ddc004b	0.107422434
64	0x3d6cc422	0.057804234
65	0x3de46712	0.111524716
66	0xbd4cb168	-0.049973875
67	0x3cc7713c	0.024345987
68	0x3c1117b3	0.008855748
69	0xbc8f4078	-0.017486796
70	0xbc812a4c	-0.015767239
71	0xbd97b2a7	-0.07407122
72	0xbdb4bb20	-0.08824754
73	0x3c0c83e8	0.008576371
74	0x3d52f681	0.051504616
75	0x3d1c6d46	0.03819015
76	0x3d147547	0.036244657
77	0xbc90a5b9	-0.017657148
78	0xbda2b152	-0.079439774
79	0xbdff2eec	-0.124601215
80	0xbe1872d1	-0.14887549
81	0x3deb462e	0.11487995
82	0x3d42f2d1	0.04759485
83	0xbd086d28	-0.033307225
84	0xbbffc87a	-0.007805881
85	0xbe0bc08d	-0.13647671
86	0xbdf7c754	-0.12098566
87	0x3ae5d0c6	0.0017533533
88	0xbdb02a21	-0.086017855
89	0xbd58495d	-0.05280434
90	0x3c660917	0.014040253
91	0xbdaccd79	-0.08437628
92	0xbdcf5c2e	-0.10125004
93	0x3de9bc6b	0.11412891
94	0x3dbb66f3	0.091504954
95	0xbdcb8a64	-0.09938505
96	0xbb6fd2ba	-0.0036594109
97	0x3de3e4cb	0.11127623
98	0x3d1ee7e2	0.03879536
99	0xbcbf033b	-0.02331697
100	0xbd074962	-0.033028968
101	0x3dec6e40	0.11544466
102	0xbc04f6cb	-0.008115481
103	0xbda67daa	-0.08129437
104	0xbd8e2bd0	-0.0694195
105	0x3c861983	0.016369587
106	0x3e139c40	0.14415073
107	0x3d91bef3	0.07116499
108	0xbe52789a	-0.20553818
109	0xbe88f5cf	-0.26750037
110	0xbe7d4926	-0.24734935
111	0xbe2a2320	-0.16614962
112	0xbe6f3b96	-0.23362574
113	0xbe85288a	-0.2600749
114	0xbe24c32f	-0.16090082
115	0xbe2832cc	-0.16425627
116	0xbe00e715	-0.12588151
117	0x3c366e0e	0.0111346375
118	0x3c93d28b	0.01804473
119	0x3d091a75	0.033472497
120	0x3cad3bc3	0.02114666
121	0x3b202100	0.0024433732
122	0x3da0df54	0.078550965
123	0xbcf2d1ce	-0.029641058
124	0xbc0c9493	-0.008580345
125	0x3bdccd97	0.0067383754
126	0x3d6071d6	0.054796062
127	0x3d8dc90f	0.069231145
128	0x3dd98125	0.106203355
129	0x3e136b02	0.14396289
130	0x3da8b13d	0.082369305
131	0x3dfc3ec9	0.12316663
132	0x3e122080	0.1427021
133	0x3e237c91	0.15965487
134	0x3e189a33	0.14902572
135	0xbd33bb15	-0.043879587
136	0x3c522fdf	0.012828796
137	0xbe0625cb	-0.13100354
138	0x3d51e847	0.051246908
139	0xbc1d47bb	-0.009599621
140	0x3d9fc87e	0.07801913
141	0x3e5578d8	0.2084688
142	0xbcf3d943	-0.029766684
143	0x3dc2ce40	0.09511995
144	0x3d2b18ec	0.041771814
145	0xbd859aa3	-0.06523635
146	0xbd636940	-0.055520296
147	0xbd6f9959	-0.058495853
148	0xbce1a5ef	-0.027544944
149	0xbe3504f2	-0.17677668
150	0x3d1b7d69	0.037961397
151	0xbe26bd23	-0.16283087
152	0xbdb829e8	-0.08992368
153	0xbd9859e8	-0.07439023
154	0xbde45a8a	-0.111500815
155	0xbe3714f1	-0.17879082
156	0x3d569a15	0.052393038
157	0xbda8ebf7	-0.08248132
158	0xbd061a94	-0.03274019
159	0x3c83c8b8	0.016086921
160	0x3e2d5c35	0.16929705
161	0x3e11fd78	0.14256847
162	0x3dd238ed	0.10264764
163	0x3e212e36	0.15740284
164	0x3d84b992	0.06480707
165	0xbdeb7d81	-0.11498547
166	0x3c4f4c05	0.012652402
167	0x3d808e5e	0.062771544
168	0xbd33aec3	-0.043867838
169	0x3e0d78d7	0.13815628
170	0x3d8100ea	0.062990025
171	0x3cb62170	0.022232741
172	0x3cdf614f	0.02726808
173	0xbd39dd2e	-0.04537695
174	0xbb90e7b6	-0.0044221533
175	0x3cc51466	0.024057578
176	0xbd32f393	-0.04368932
177	0xbe7531c1	-0.23944761
178	0xbea84a9c	-0.32869422
179	0xbe95ca00	-0.29255676
180	0x3d8b942a	0.068153694
181	0x3d7e8fcd	0.062148858
182	0x3d3143f1	0.043277685
183	0xbd65dfbc	-0.056121573
184	0xbe267345	-0.1625491
185	0xbe08ee6f	-0.13372205
186	0xbd9b6c40	-0.075890064
187	0xbd94bc2a	-0.07262452
188	0xbd9eebc9	-0.07759816
189	0xbe7ad378	-0.24494731
190	0xbe087bd6	-0.1332849
191	0xbdeb5cdb	-0.1149232
192	0xbcfe2a87	-0.031026138
193	0x3d5a30f6	0.05326935
194	0x3d717a8e	0.058954768
195	0x3db09abd	0.08623264
196	0xbca22561	-0.019793214
197	0x3d490050	0.049072564
198	0xbd9ff84f	-0.07811033
199	0x3dc89b43	0.09795239
200	0x3db7e6a6	0.089795396
201	0xbcc7cafd	-0.024388785
202	0x3d8f6e12	0.07003416
203	0x3e2ba69d	0.16762777
204	0xbd97a0db	-0.074037276
205	0xbd32894a	-0.04358796
206	0xbcb34ea3	-0.021888083
207	0xbccdf841	-0.02514279
208	0xbdd31029	-0.10305817
209	0x3b67c718	0.0035366472
210	0xbcf0f6b2	-0.029414508
211	0x3b0e7ea0	0.0021742955
212	0xbdc4244f	-0.09577238
213	0xbe2902b3	-0.16504936
214	0xbe351f05	-0.17687614
215	0xbd5f9884	-0.05458881
216	0xbd2f4537	-0.042790618
217	0xbdd37a28	-0.10326034
218	0xbda6d221	-0.08145548
219	0x3dacff65	0.0844715
220	0x3dead5ae	0.114665374
221	0x3da25cf3	0.07927885
222	0x3c61de3f	0.013785898
223	0x3d2d9bc4	0.042384878
224	0xbd7300ee	-0.05932706
225	0x3939e560	0.00017728424
226	0x3cbb76ef	0.02288386
227	0xbd475be4	-0.048671618
228	0xbd42ec5c	-0.04758869
229	0xbceda90f	-0.029011277
230	0xbd7d47f2	-0.06183619
231	0x3dce3430	0.10068548
232	0x3d469275	0.048479516
233	0x3d5cc2dd	0.053896774
234	0x3dac2de0	0.084071875
235	0xbb8ee01f	-0.0043602134
236	0xbd9691f3	-0.07352056
237	0xbd93dc43	-0.07219746
238	0xbddaf5b6	-0.10691397
239	0xbd7fafa6	-0.06242337
240	0x3de00274	0.10937968
241	0x3e1eabdb	0.15495245
242	0x3e053add	0.13010736
243	0x3db6bbf1	0.08922566
244	0x3d5f9622	0.054586537
245	0xbd7ca500	-0.061680794
246	0x3d9babd4	0.07601133
247	0xbd9eb858	-0.077500045
248	0xbdb972ce	-0.090551004
249	0x3cf5dd8d	0.03001287
250	0xbb7a6afc	-0.003821074
251	0x3d3b45cc	0.04572086
252	0x3df2fa5e	0.1186416
253	0x3d3443da	0.04401002
254	0x3d3e8a45	0.046518583
255	0xbd60a4f9	-0.05484483

conv2.bias f4 [64]
0	0xbc8bd722	-0.017070357
1	0xbde42802	-0.111404434
2	0x3b8a70d7	0.0042248773
3	0x3be1a44b	0.0068860403
4	0x3dbfff90	0.093749166
5	0xbdc8214d	-0.097719766
6	0xbd4d3612	-0.050100394
7	0xbdb63d30	-0.08898389
8	0xbe25d975	-0.16196235
9	0x3bbba302	0.005726219
10	0xbce6fda3	-0.028197115
11	0xbd8d88c9	-0.06910855
12	0x3da84bf9	0.08217616
13	0x3d9b946d	0.07596669
14	0x3de88e77	0.11355298
15	0xbc8b94c7	-0.017038716
16	0x3d5d63f7	0.054050412
17	0xbd61d858	-0.055137962
18	0xbd170d4b	-0.03687791
19	0x3d1d180d	0.038353015
20	0xbd8d0e73	-0.068875216
21	0xbdc72a34	-0.097248465
22	0xbd5e5286	-0.05427792
23	0x3d468648	0.048467904
24	0xbac5586e	-0.0015056261
25	0xbd6a89a1	-0.05726016
26	0xbc990653	-0.018679773
27	0xbca8c5c6	-0.020602118
28	0x3c94632b	0.018113693
29	0xbc8ef9bd	-0.017453069
30	0x3dc90ff1	0.09817494
31	0xbdc51903	-0.09623911
32	0xbd9572b9	-0.07297272
33	0x3d4a563c	0.049398646
34	0x3d1dec02	0.038555153
35	0x3cbc11d7	0.022957725
36	0x3dceb9ac	0.10094008
37	0x3cb69bad	0.022291029
38	0x3d21c43a	0.039493777
39	0xbda4ae6b	-0.0804108
40	0xbc1341c0	-0.008987844
41	0xbd29a0c1	-0.041413072
42	0xbda807ac	-0.08204588
43	0x3b0f0107	0.002182068
44	0x3b4a48c7	0.0030866133
45	0xbdb00e47	-0.08596473
46	0x3d8f9480	0.07010746
47	0x3c8999a8	0.016796902
48	0x3d42dec1	0.047575716
49	0x3d462210	0.04837233
50	0x3d0db1e6	0.034593485
51	0x3d21e933	0.039529037
52	0xbd95af4c	-0.07308826
53	0xbd9e6141	-0.077333935
54	0xbd2ae7ff	-0.041725155
55	0x3dba0e71	0.09084786
56	0xbd9b0868	-0.07569963
57	0xbda874a7	-0.08225375
58	0xbd570331	-0.052493278
59	0xbde3603a	-0.11102338
60	0xbc4669d8	-0.012110196
61	0x3a331000	0.00068306923
62	0xbd2fc306	-0.0429106
63	0xbd952ff0	-0.07284534

lstm.weight_ih_l0 f4 [256, 64]
0	0xbd44e018	-0.048065275
1	0x3d5149ab	0.051095646
2	0xbdb64cde	-0.0890138
3	0x3d961580	0.073283195
4	0x3c596c9c	0.013270523
5	0x3d25bc9f	0.040463086
6	0x3d9bf8e8	0.076158345
7	0xbdd2e23a	-0.102970555
8	0x3d814307	0.063116126
9	0x3df944d8	0.12171334
10	0x3d75cd2f	0.06001013
11	0xbb893256	-0.0041869087
12	0xbcf8e36d	-0.030381883
13	0xbd148c27	-0.036266472
14	0xbd09ee98	-0.033674806
15	0xbb9c0c61	-0.004762218
16	0x3b73cfa9	0.0037202633
17	0x3d83527b	0.06412216
18	0x3d0dbda3	0.03460468
19	0x3d14ae2f	0.036298927
20	0xbccdd5ab	-0.025126299
21	0x3c9d05aa	0.01916774
22	0xbdb8c0b0	-0.09021127
23	0xbcd8a142	-0.026444081
24	0x3cdccee5	0.026954124
25	0x3dde7403	0.10861971
26	0x3e0b2b18	0.13590658
27	0xbd802fc1	-0.06259108
28	0x3d9b54bc	0.07584521
29	0xbdd2d9ac	-0.10295424
30	0x3d42223c	0.04739593
31	0xbd260677	-0.04053351
32	0x3d43fc8a	0.047848262
33	0xbcd52b9a	-0.026021767
34	0x3d799fcc	0.06094341
35	0x3c8eeca0	0.017446816
36	0xbd892c05	-0.06697849
37	0xbd6827e6	-0.056678675
38	0x3d77f325	0.060534615
39	0x3d6a9576	0.057271443
40	0xbd876740	-0.0661149
41	0xbd0f4c13	-0.03498466
42	0x3cebebea	0.028799016
43	0x3d146e0d	0.036237765
44	0x3e02126e	0.12702343
45	0x3d200e71	0.039076272
46	0x3c597956	0.013273558
47	0xbbe48fb2	-0.0069751376
48	0xbd873981	-0.06602765
49	0x3dbf0168	0.0932644
50	0x3b28eefd	0.0025777214
51	0x3d30b1a8	0.043138176
52	0x3cd6a145	0.026199946
53	0x3c4136e8	0.011792876
54	0x3bd04624	0.0063560177
55	0x3dc42936	0.09578173
56	0x3d75d8fc	0.060021386
57	0x3b35e862	0.002775692
58	0x3da9dc5d	0.08293984
59	0x3da5aa3f	0.080891125
60	0x3cb81ff7	0.02247618
61	0x36914d90	4.330366e-06
62	0x3c1ed7a6	0.009694969
63	0xbde113b7	-0.109900884
64	0x3d818da5	0.06325845
65	0xbd02699d	-0.031839002
66	0xbd287d0c	-0.04113488
67	0x3aa420f2	0.0012522025
68	0x3de848c0	0.11342001
69	0x3e46ba49	0.19407
70	0xbe0a4adb	-0.13505118
71	0xbdecc385	-0.1156073
72	0xbcb5e04f	-0.022201685
73	0x3dce858b	0.10084065
74	0xbc007f05	-0.007842784
75	0xbd9afe99	-0.07568092
76	0x3d9c41fd	0.07629774
77	0xbd181f54	-0.03713925
78	0x3bc1999f	0.0059082056
79	0x3d2d9630	0.042379558
80	0xbcbe3bc3	-0.023221856
81	0x3c923867	0.01784916
82	0xbd27086d	-0.04077952
83	0x3d968c50	0.07350981
84	0xbd8f5c72	-0.070000544
85	0xbce8cbe9	-0.028417544
86	0x3b7fc8e8	0.0039029662
87	0xbd19980b	-0.037498515
88	0x3d86cedf	0.06582426
89	0x3d2686b0	0.04065579
90	0xbe2f3c99	-0.1711296
91	0x3c7dea5e	0.015497772
92	0x3da1ac32	0.07894172
93	0x3b9d77e8	0.0048055537
94	0x3d8c05a4	0.06837013
95	0xbbd9f721	-0.0066517745
96	0x3dbeda8b	0.093190275
97	0xbd7732ea	-0.06035129
98	0xbe36887a	-0.17825499
99	0xbdc4bd68	-0.09606439
100	0xbe391cd3	-0.18077402
101	0x3c01c353	0.007920104
102	0x3d9b88e4	0.07594469
103	0xbcdab041	-0.026695373
104	0xbc594b91	-0.013262645
105	0x3d14e458	0.036350578
106	0x3c2df32f	0.0106170615
107	0x3c3140c5	0.010818665
108	0x3dbdd6cc	0.09269485
109	0xbd428861	-0.047493342
110	0x3c932d3c	0.017965905
111	0x3ded7905	0.11595348
112	0x3e199ee5	0.1500202
113	0x3cd2f760	0.025752723
114	0x3d207f3f	0.03918385
115	0xbdccf795	-0.1000816
116	0x3dabd998	0.08391112
117	0xbd7564cc	-0.05991058
118	0x3c80278d	0.01564386
119	0xbd926dd0	-0.07149851
120	0xbda172a7	-0.07883196
121	0xbe1a6579	-0.15077771
122	0x3d281ebc	0.041044936
123	0xbc6a0c0f	-0.014285102
124	0xbc0e6438	-0.008690886
125	0xb3cc51e0	-9.514383e-08
126	0xbe167c38	-0.14695823
127	0x3c9d6ff2	0.019218419
128	0xbda594c0	-0.080850124
129	0x3d9bd83b	0.07609602
130	0x3c74f0b2	0.014949964
131	0x3be2fac6	0.006926867
132	0xbba36b68	-0.004987169
133	0xbcdbdf1c	-0.026839785
134	0xbcb737da	-0.0223655
135	0xbc66af90	-0.014079943
136	0x3d866166	0.06561546
137	0x3d5e58fe	0.05428409
138	0x3d2a08a8	0.04151216
139	0x3d5182d2	0.05115015
140	0x3dd61295	0.10452763
141	0xbd992e77	-0.074795656
142	0x3deb60ba	0.114930585
143	0x3d84e8c2	0.064897075
144	0xbd84dc77	-0.06487363
145	0x3cec9011	0.02887729
146	0xbd0e62d9	-0.034762237
147	0xbd961c7f	-0.07329654
148	0x39f131f9	0.00046004335
149	0xbdf03c98	-0.11730307
150	0xbd99c7d0	-0.07508814
151	0xbc0efb38	-0.008726887
152	0xbd1cdc8c	-0.038296267
153	0xbcc6e78a	-0.024280328
154	0xbd0e3bbd	-0.03472494
155	0x3d8e5b79	0.06951041
156	0x3d3d9e50	0.046293557
157	0x3c47dfe3	0.012199375
158	0x3d7a9318	0.061175436
159	0xbdbb2e51	-0.091396935
160	0x3d18bb5e	0.037288062
161	0x3d2c27e3	0.042030226
162	0x3ccdddae	0.02513012
163	0xbc0ae7d8	-0.008478127
164	0xbd6ed589	-0.05830911
165	0xbcbe8740	-0.023257852
166	0xbcb174a6	-0.021662068
167	0x3e12e7b0	0.14346194
168	0x3db7f9e1	0.089832075
169	0x3cd73d72	0.026274417
170	0xbacc98e7	-0.0015609533
171	0x3d9b2a66	0.07576446
172	0xbd3717a0	-0.044700265
173	0x3d874eb2	0.06606807
174	0xbd88239c	-0.06647417
175	0x3d201af4	0.039088205
176	0x3c603a58	0.013685785
177	0x3d03a374	0.032138303
178	0x3d8cbcfd	0.06871984
179	0x3d09ac82	0.033611782
180	0x3d38cab0	0.045115173
181	0x3cafe0ff	0.021469591
182	0xbb5fc175	-0.003414241
183	0x3c154608	0.009110935
184	0x3d35b6c6	0.04436376
185	0x3c6dec64	0.014521692
186	0x3c3e6ecf	0.0116230985
187	0x3d2eaec3	0.042647135
188	0x3c19a0c0	0.009376705
189	0x38c3edbd	9.342607e-05
190	0x3bdfa160	0.0068246573
191	0x3db6f355	0.08933131
192	0xbd7726b1	-0.060339633
193	0x3d2206a2	0.039557107
194	0xbdb8168e	-0.08988677
195	0x3d607220	0.054796338
196	0xbddc44ab	-0.10755285
197	0x3e0976c5	0.13424213
198	0xbd05d62c	-0.032674953
199	0xbd86b036	-0.06576578
200	0x3d9303a3	0.07178428
201	0x3e460170	0.19336486
202	0xbdfc96aa	-0.123334244
203	0xbd4150b4	-0.047196105
204	0x3a608219	0.0008564308
205	0x3c29e310	0.010369077
206	0x3e0b93f7	0.13630663
207	0x3d4ce540	0.050023317
208	0x3cc74a6f	0.024327485
209	0xbdbede5a	-0.09319754
210	0xbd970dc0	-0.073756695
211	0x3d9af456	0.07566135
212	0x3ceea6fc	0.029132359
213	0x3d413ee3	0.047179114
214	0xbdf64c54	-0.12026277
215	0x3d5506b4	0.052008346
216	0xbd8b0445	-0.06787924
217	0x3d9b37cd	0.075790025
218	0xbd88c0cf	-0.066774
219	0x3dbc513e	0.09195183
220	0x3d84d120	0.064852
221	0xbdcb3b29	-0.09923393
222	0xbc34fe88	-0.011047013
223	0x3d9c8943	0.07643368
224	0xba5b4179	-0.0008363943
225	0xbe0e33f8	-0.13887012
226	0x3d88ee92	0.06686129
227	0x3dc0d60a	0.09415825
228	0xbddc9a51	-0.10771621
229	0xbdb72ece	-0.08944474
230	0xbcfa053a	-0.03052007
231	0x3d6179c9	0.055047784
232	0xbc521385	-0.012822037
233	0x3d9d4d6b	0.07680782
234	0xbbe61ac8	-0.0070222355
235	0xbd6d862c	-0.057989284
236	0xbd6e5724	-0.058188573
237	0xbe28f15c	-0.16498321
238	0x3dd2200a	0.10260017
239	0x3dcc1cc6	0.099664256
240	0xbd037331	-0.032092277
241	0xbb0f97ad	-0.0021910474
242	0x3cf62c48	0.030050412
243	0xbd6afa86	-0.057367824
244	0x3db164ff	0.086618416
245	0x3ddf1019	0.10891742
246	0xbd50fbf8	-0.051021546
247	0x3d632ecb	0.055464547
248	0x3e1bf780	0.15231133
249	0xbd0d8919	-0.034554575
250	0x3e0ab0a4	0.13543946
251	0xbd069a29	-0.032861862
252	0x3c47f1ee	0.012203677
253	0xb5de3ec2	-1.6558554e-06
254	0xbcaf2926	-0.021381926
255	0xbdaea1c5	-0.08526949

lstm.weight_hh_l0 f4 [256, 64]
0	0x3c5c8db3	0.013461518
1	0xbdaea7cc	-0.085280985
2	0x3c698c3d	0.014254627
3	0xbd8f203b	-0.06988569
4	0x3d1ec259	0.038759563
5	0xbd19fe50	-0.037596047
6	0xbcb03d09	-0.021513479
7	0x3d160fd7	0.0366362
8	0xbd3bc359	-0.045840595
9	0x3c554c1d	0.013018635
10	0xbe0045db	-0.12526648
11	0xbc6128e9	-0.013742664
12	0x3dc38e4c	0.09548625
13	0x3ce8804f	0.028381495
14	0xbb174a4e	-0.002308506
15	0xbce1c4a8	-0.027559593
16	0xbde77828	-0.11302215
17	0x3d163758	0.036673874
18	0xbe4295aa	-0.19002405
19	0xbd4b9709	-0.049704585
20	0x3d61ef82	0.055160053
21	0xbd20c2bc	-0.039248213
22	0xbca9ae36	-0.020712953
23	0xbb6fbd18	-0.0036581215
24	0x3c59623c	0.01326805
25	0x3a890a1a	0.0010455281
26	0xbdab54c8	-0.0836578
27	0xbcb80534	-0.022463419
28	0x3cc640c3	0.024200803
29	0xbc33ae43	-0.01096684
30	0x3ddcee11	0.10787595
31	0xbe022b61	-0.1271186
32	0xbc0dc882	-0.008653762
33	0xbdb93c12	-0.09044661
34	0xbced76e5	-0.028987357
35	0xbb96f8a2	-0.004607276
36	0xbcb7a1e9	-0.022416072
37	0xb9b9f614	-0.00035469292
38	0x3d2185a1	0.03943408
39	0x3d302cda	0.043011524
40	0xbdafafb7	-0.08578437
41	0xbd37d4f3	-0.04488082
42	0xbc89b066	-0.016807746
43	0xbd21c707	-0.039496448
44	0x3d56440d	0.052310992
45	0xbd2611e5	-0.04054441
46	0x3db109db	0.08644458
47	0xbc380a75	-0.011232962
48	0x3dc62c5c	0.0967643
49	0xbc1a85d9	-0.009431326
50	0x3dbfdb3b	0.09367987
51	0xbdd49fff	-0.10382079
52	0x3d3ef761	0.046622638
53	0x3cf175dc	0.029475145
54	0xbd916a6d	-0.07100377
55	0x3c364e7f	0.011127113
56	0xbb8ad374	-0.004236633
57	0xbb10340e	-0.0022003683
58	0xbc101a9a	-0.008795405
59	0x3d9612a7	0.073277764
60	0xbd3eac59	-0.046551082
61	0xbde1def0	-0.1102885
62	0x3c8d1524	0.017221995
63	0xbc131da5	-0.008979236
64	0x3dc77852	0.09739746
65	0xbd1a9bcd	-0.03774624
66	0xbc55e0f7	-0.013054124
67	0xbb839405	-0.004015448
68	0xbdfb16d3	-0.12260213
69	0x3cd258c8	0.0256771
70	0xbb2da70e	-0.0026497277
71	0xbd3b64e4	-0.045750514
72	0xbd96aa34	-0.073566824
73	0xbb92b607	-0.0044772658
74	0xbd8f3fb1	-0.0699457
75	0xbc4f096b	-0.012636523
76	0x3dc98baa	0.09841092
77	0xb950ab58	-0.00019900256
78	0xbd63875d	-0.055549014
79	0xbc139860	-0.009008497
80	0xbcd7a62a	-0.02632435
81	0x3cd499f0	0.02595231
82	0x3d9bcc00	0.07607269
83	0x3d19391b	0.037407976
84	0x3dea1fc7	0.11431842
85	0xbde4cac2	-0.111714855
86	0xbb29eb41	-0.0025927576
87	0x3b237f04	0.0024947533
88	0x3d8a5941	0.06755305
89	0x3cb4b397	0.022058291
90	0xbdb98a53	-0.090595864
91	0x3c3eb8ae	0.011640711
92	0x3d061d15	0.03274258
93	0xbca6ff94	-0.020385541
94	0x3c7e8aae	0.0155359935
95	0x3d751f9c	0.0598446
96	0xbcaa9586	-0.020823251
97	0x3d322509	0.04349235
98	0x3e296398	0.16541898
99	0xbb392d06	-0.0028255596
100	0xbb96aeed	-0.0045984895
101	0x3bd3bbda	0.0064616026
102	0x3e7241b7	0.2365788
103	0x3d3cf565	0.046132464
104	0x3d9a07f5	0.07521049
105	0xbc03f4cb	-0.008053969
106	0x3c519e1c	0.012794044
107	0xbe61235f	-0.21986149
108	0xbd46aed8	-0.048506588
109	0xbba4bd05	-0.0050274157
110	0x3cc7500e	0.024330165
111	0x3cdafec6	0.026732814
112	0x3d8e1f44	0.06939557
113	0xbdbf90e7	-0.0935381
114	0xbd3fb129	-0.046799812
115	0x3de34a1a	0.11098118
116	0x3d1493ba	0.036273696
117	0xbd79d340	-0.06099248
118	0x3d95cf6d	0.07314954
119	0xbe0e5562	-0.13899758
120	0xbd3544ad	-0.044254947
121	0xbd04a8b1	-0.03238744
122	0x3da0309e	0.07821773
123	0x3dc4a87a	0.09602447
124	0xbba26159	-0.0049554524
125	0x3d96115f	0.07327532
126	0xbbb442f7	-0.005501147
127	0xbc04727e	-0.008083938
128	0xb9c5226b	-0.0003760041
129	0xbdbf1b48	-0.09331375
130	0x3d384117	0.04498395
131	0x3dd45847	0.103684
132	0xbbd9901a	-0.0066394927
133	0x3cd18047	0.025573863
134	0xbd884b0e	-0.066549405
135	0xbca13652	-0.019679222
136	0x3d682350	0.0566743
137	0xbd98cd3f	-0.074610226
138	0xbd216dfd	-0.039411534
139	0xbceb6e3f	-0.028739093
140	0x3cb60906	0.0222211
141	0xbd559185	-0.05214073
142	0x3d551eca	0.052031316
143	0x3cffc1a5	0.031220267
144	0xbe348ff8	-0.17633045
145	0x3d164204	0.03668405
146	0xbd3a9b5e	-0.045558326
147	0x3c2dbce4	0.010604117
148	0x3dd941bc	0.10608241
149	0xbc6d16c6	-0.014470762
150	0x3d9e0b87	0.077170424
151	0xbcf27b77	-0.029599888
152	0xb823ca9c	-3.9050923e-05
153	0x3b9e39ed	0.0048286826
154	0xbd5bba2e	-0.05364435
155	0xbdec258b	-0.11530598
156	0x3d0fe28a	0.035128154
157	0xbc9711b5	-0.01844106
158	0x3c68d93f	0.014211952
159	0xbd83a3e0	-0.06427741
160	0x3d0d697e	0.034524433
161	0xbdea6f28	-0.114469826
162	0xbd970565	-0.07374076
163	0xbcd49e2d	-0.02595433
164	0xbd8c2e17	-0.068447284
165	0xbda1c874	-0.078995615
166	0x3dc69342	0.09696056
167	0x3b6a6366	0.0035764812
168	0xbd44de54	-0.04806359
169	0x3d4db185	0.050218124
170	0xbda9536a	-0.08267863
171	0xbd2642eb	-0.04059116
172	0xbce10ded	-0.02747246
173	0x3cdb261f	0.026751576
174	0x3d9e097e	0.07716654
175	0x3d311ae8	0.04323855
176	0x3d2ef412	0.042713232
177	0x3d9567bb	0.07295176
178	0xbd59c350	-0.05316478
179	0xbcb32d8c	-0.021872304
180	0xbd62198b	-0.05520014
181	0xbab7a095	-0.0014009649
182	0xbdde8d25	-0.10866765
183	0x3d98195e	0.074267134
184	0x3e1ee6e2	0.15517762
185	0x3d3b3542	0.045705087
186	0x3cbe7b47	0.023252143
187	0xbd65773a	-0.056021906
188	0x3c2a4575	0.010392536
189	0xbe00ed56	-0.12590536
190	0xbdafc3ca	-0.08582266
191	0x3b80bc76	0.0039287163
192	0x3c156a81	0.009119631
193	0xb9d41a56	-0.00040455413
194	0xbc9c57ff	-0.019084929
195	0xbdf558b1	-0.11979807
196	0xbdb9d4da	-0.09073801
197	0x3cffb99a	0.031216431
198	0x3ccf06a3	0.02527172
199	0xbdf11205	-0.11771015
200	0x3da5830e	0.08081637
201	0xbd81e921	-0.06343294
202	0x3d403909	0.046929393
203	0x3bb73cf6	0.005591984
204	0xbcc7a06a	-0.024368484
205	0x3d5649bf	0.052316424
206	0xbbcba98e	-0.006215281
207	0xbca006de	-0.019534525
208	0xbdaefa1c	-0.08543798
209	0x3d0339cc	0.03203754
210	0xbd9fe903	-0.07808115
211	0x3dbf6174	0.093447596
212	0x3d219856	0.03945192
213	0xbdb162d9	-0.08661432
214	0xbcf59a7d	-0.029980892
215	0x3dd84e93	0.10561862
216	0x3d553a99	0.052057836
217	0xbc88814a	-0.016663212
218	0xbd200c40	-0.039074183
219	0x3e06ec80	0.13176155
220	0x3da7a2a1	0.08185316
221	0x3d26f5e5	0.040761847
222	0x3d322132	0.04348869
223	0xbdbe52b4	-0.09293118
224	0xbdb4d9b0	-0.08830583
225	0xbc8be6be	-0.0170778
226	0xbe0b9eb9	-0.13634767
227	0x3c3b644b	0.011437486
228	0x3d7e8128	0.06213489
229	0xbd20bd2d	-0.039242912
230	0x3cc41139	0.023933994
231	0xbd057d8b	-0.03259043
232	0xbbe5de1a	-0.007015002
233	0x3b6f6a8a	0.0036532008
234	0x3d9f90ce	0.07791291
235	0xbce51a6c	-0.0279667
236	0x3c2b0c9d	0.010440019
237	0x3cbafc46	0.022825371
238	0x3de8565f	0.11344599
239	0x3d620672	0.055181928
240	0x3e24c55c	0.16090912
241	0x3d6daf8f	0.058028754
242	0xbddc0039	-0.1074223
243	0xbe2836f2	-0.1642721
244	0x3dbced41	0.0922494
245	0xbcb04771	-0.02151844
246	0xbd90e074	-0.07074061
247	0xbdf610e0	-0.120149374
248	0x3dc51ffc	0.09625241
249	0x3d09a6e7	0.033606436
250	0x3b95883c	0.0045633595
251	0xbcd7d418	-0.026346251
252	0x3c719c6a	0.014746765
253	0xbe04a119	-0.12952079
254	0x3d95b2bf	0.07309484
255	0xbd19cffe	-0.037551872

lstm.bias_ih_l0 f4 [256]
0	0xbd95fdf9	-0.07323832
1	0xbdab1bc6	-0.08354907
2	0x3bcb054b	0.0061956993
3	0x3d16632d	0.036715675
4	0x3bc90097	0.0061341035
5	0xbb27efea	-0.0025625178
6	0xbd869391	-0.06571115
7	0x3d8bea23	0.068317674
8	0xbd04a079	-0.0323796
9	0xbd3a3c8c	-0.0454679
10	0xbab11d99	-0.0013512849
11	0x3dc2db16	0.095144436
12	0x3d9b3fd9	0.07580537
13	0x3cef46e3	0.029208606
14	0xbd86e86d	-0.065873004
15	0xbd2331f9	-0.03984258
16	0x3ddd3671	0.108013995
17	0x3b07b47c	0.0020706942
18	0x3d0207d3	0.031745743
19	0xbd03ce97	-0.03217944
20	0x3deef91c	0.116686076
21	0xbda73875	-0.08165065
22	0x3d16bd07	0.036801364
23	0xbb2e3c5d	-0.0026586272
24	0xbcad8c23	-0.021184986
25	0x3de13115	0.1099569
26	0xbdb9db8f	-0.090750806
27	0x3d523491	0.051319662
28	0xbbc7726c	-0.006086638
29	0x3dff9d2f	0.12481152
30	0x3ca944b2	0.02066264
31	0x3c679156	0.014133772
32	0xbbc9800a	-0.0061492966
33	0xbc5b4979	-0.013384216
34	0xbc4f0960	-0.0126365125
35	0x3d76945b	0.060200077
36	0xbda5f3eb	-0.08103164
37	0x3c8f96c8	0.017527953
38	0xbb4f1ccd	-0.003160286
39	0x3d8ac5c5	0.06776003
40	0x3bf79d95	0.007556627
41	0x3d77550c	0.06038384
42	0x3ddf987b	0.10917755
43	0xbd7b45ca	-0.061345853
44	0xbce7ffb9	-0.02832018
45	0xbad9e9e1	-0.0016625487
46	0x3d0fdca3	0.035122525
47	0xbc4dedbe	-0.012568889
48	0x3d639578	0.055562466
49	0xbd17a223	-0.03701986
50	0xbdde3d7a	-0.108515695
51	0x3db9c94a	0.09071596
52	0x3d8edd7d	0.06975839
53	0x3d8e89f4	0.06959906
54	0xbcd19b4c	-0.025586747
55	0x3d64f18d	0.055894423
56	0x3e537d48	0.2065326
57	0xbd09697b	-0.03354786
58	0xbcee21ce	-0.029068854
59	0xbcf47b6f	-0.029844014
60	0xbdd03c13	-0.10167708
61	0x3a461b14	0.00075571355
62	0xbd67fc6b	-0.05663721
63	0x3dc06cbd	0.0939574
64	0x3d897174	0.067110926
65	0x3d0d6275	0.034517724
66	0x3dabf78a	0.08396824
67	0x3e0aeada	0.13566151
68	0x3e10c691	0.14138247
69	0x3e2a9b88	0.16660893
70	0x3d38364e	0.044973664
71	0x3e057005	0.13031013
72	0x3e0d1531	0.13777615
73	0xbc550a78	-0.013002984
74	0x3e42ede0	0.19036055
75	0x3e115c94	0.14195472
76	0x3d3e4ffd	0.046463
77	0x3dd03d41	0.10167933
78	0x3dcc6746	0.09980635
79	0x3d4c9872	0.04995007
80	0x3e2f4a07	0.17118083
81	0xbc82cee8	-0.015967801
82	0x3d4f7a37	0.050653663
83	0x3e2f14ed	0.17097826
84	0x3e217768	0.15768206
85	0x3d859002	0.06521608
86	0x3e2980e3	0.16553073
87	0x3e3aa007	0.18225108
88	0x3c49a31b	0.012306954
89	0x3e2ff93f	0.17184924
90	0x3ce5f9ba	0.02807318
91	0x3e4847c7	0.19558631
92	0x3d2286b2	0.039679237
93	0x3da25730	0.07926786
94	0x3cd188cb	0.025577923
95	0x3d90097b	0.07033058
96	0x3dd4cf92	0.103911534
97	0x3e13d03c	0.14434904
98	0xbd6e1699	-0.05812702
99	0xbd93825d	-0.07202599
100	0x3e1012a0	0.14069605
101	0x3d28107c	0.041031346
102	0x3dceed36	0.10103838
103	0x3c8cb25f	0.017174898
104	0x3d003bc9	0.031307016
105	0x3d9e35fa	0.07725139
106	0x3c135e75	0.008994688
107	0x3defa4c1	0.11701346
108	0xbd49e21a	-0.049287893
109	0x3d9f6fdd	0.07785008
110	0x3cf30236	0.02966414
111	0x3dcd4649	0.100231715
112	0x3db6d435	0.08927194
113	0xbc7c9728	-0.015416898
114	0x3d536345	0.051608343
115	0x3dc85c59	0.09783239
116	0x3e106b2b	0.14103381
117	0x3dad2ad7	0.08455437
118	0xb98c0ba6	-0.0002671156
119	0x3d190952	0.037362404
120	0x3e868a3f	0.26277348
121	0x3dcd9278	0.10037702
122	0x3e3d651b	0.184956
123	0x3d942d37	0.072351865
124	0x39dc60da	0.0004203383
125	0x3e1c7483	0.1527882
126	0x3daefa3d	0.08543823
127	0xba72983d	-0.00092542527
128	0xbc9008a0	-0.017582238
129	0x399c34b4	0.00029793906
130	0x3d90ec8d	0.070763685
131	0xbd69220f	-0.056917246
132	0xbdacd4fc	-0.08439061
133	0xbd501144	-0.050797716
134	0x3c5c1aa0	0.013434082
135	0xbd8807ad	-0.06642089
136	0xbdb84490	-0.08997452
137	0xba658d72	-0.0008756734
138	0x3e026c14	0.12736541
139	0xbdb31cdd	-0.087457396
140	0x3c8d8f21	0.017280163
141	0xbd7b2d5a	-0.061322547
142	0xbd5a67b6	-0.053321563
143	0xbd93853f	-0.07203149
144	0xbdb30e62	-0.08742978
145	0x3dda1af5	0.10649673
146	0xbb882fd4	-0.004156092
147	0xbb99a159	-0.0046884236
148	0xbd764762	-0.06012667
149	0xbd94ae61	-0.07259823
150	0xbdfbb891	-0.122910626
151	0xbd4ece48	-0.050489694
152	0xbc812afc	-0.015767567
153	0x3d6ac7ca	0.05731944
154	0xbdb5740b	-0.08860024
155	0x3b2b766f	0.0026163121
156	0x3da07584	0.07834914
157	0x3dadfef9	0.08495898
158	0x3d2f4efe	0.042799942
159	0x3da58759	0.08082456
160	0xbdcae516	-0.09906976
161	0x3da89ede	0.082334265
162	0x3d152e83	0.03642131
163	0x3d3188cf	0.04334336
164	0xbc9218cb	-0.017834088
165	0x3b762ba1	0.0037562626
166	0xbe0413d5	-0.1289819
167	0x3cf9fa1d	0.030514771
168	0x3e3ac467	0.18238984
169	0xbd235a72	-0.039881177
170	0x3cdd2e43	0.026999598
171	0x3dd03367	0.10166054
172	0x3e0cb78c	0.13741893
173	0xbd0e4742	-0.034735925
174	0x3cfc26d6	0.030780237
175	0x3bffe7bd	0.007809608
176	0x3da520dc	0.08062908
177	0x3e1412cb	0.14460294
178	0xbd3c3ed6	-0.045958363
179	0xbd9f601e	-0.07782005
180	0xbc4367ec	-0.011926632
181	0x3df965a3	0.12177589
182	0x3d03d1e4	0.03218259
183	0xbdb3b871	-0.08775414
184	0x3b08c12f	0.00208671
185	0x3d5919e2	0.0530032
186	0xbca3beb2	-0.019988392
187	0xbdb21817	-0.08696001
188	0xbd087ab4	-0.033320144
189	0xbb53d077	-0.00323203
190	0x3d822d9b	0.06356355
191	0x3d0dbe2a	0.034605183
192	0xbd7eb227	-0.062181618
193	0x3d34c4b8	0.044132918
194	0x3dc876de	0.09788297
195	0x3dcf2220	0.10113931
196	0xbc8772d4	-0.016534247
197	0xbd741454	-0.0595897
198	0x3d2a1e32	0.041532703
199	0xbc40e1a6	-0.011772549
200	0xbc08e150	-0.0083545
201	0x3cb2e963	0.021839803
202	0x3d26ddfe	0.040739052
203	0x3e1aeb96	0.15128931
204	0x3e053ff9	0.13012685
205	0x3e0e17a4	0.13876206
206	0xbd9781f6	-0.07397835
207	0xba0053c2	-0.00048952934
208	0xbc84580e	-0.016155269
209	0xbd0afb40	-0.033931017
210	0x3d1b2097	0.037872877
211	0x3de79584	0.11307815
212	0x3e50bd0e	0.20384619
213	0xbd7b927b	-0.06141899
214	0x3c00a18e	0.007851018
215	0x3dcd166c	0.10014042
216	0xbb43a88d	-0.0029855103
217	0xbb69ba23	-0.0035663925
218	0x3e0f4a6e	0.13993236
219	0x3d3fa45c	0.046787605
220	0x3d18b3f6	0.037281
221	0xbd7deb7e	-0.06199216
222	0xbd226ec8	-0.03965643
223	0x3d22413d	0.039612997
224	0x3b029874	0.0019927295
225	0x3e03ceea	0.128719
226	0xbcd046a2	-0.025424305
227	0xbdba883c	-0.09108016
228	0x3dda94c0	0.10672903
229	0x3d22bdc6	0.039731763
230	0x3d0bc352	0.03412182
231	0x3d0ed0d1	0.03486711
232	0xbd7c8d7e	-0.061658375
233	0x3dc55b78	0.09636587
234	0xbca3b510	-0.019983798
235	0x3cacfa1e	0.021115359
236	0x3e07eab5	0.13273127
237	0x3d973cd4	0.07384649
238	0x3e0059c7	0.12534247
239	0x3e039fae	0.12853882
240	0xbc527168	-0.012844421
241	0x3e17c457	0.14820991
242	0x3e3c55a7	0.18392049
243	0x3dec2782	0.11530973
244	0xbc89d8a0	-0.016826928
245	0x3e2dc378	0.16969097
246	0x3e12f16a	0.14349905
247	0x3c78ad14	0.015177984
248	0x3e0e6804	0.13906866
249	0xbd41b20b	-0.047288936
250	0xbc9e9052	-0.019355927
251	0x3c5819fb	0.013189788
252	0x3dcbb06e	0.09945761
253	0x3c96d47c	0.018411867
254	0xbd23adad	-0.039960552
255	0xbcb96985	-0.022633323

lstm.bias_hh_l0 f4 [256]
0	0x3da69c9d	0.0813534
1	0xbc1317c0	-0.00897783
2	0xbcc0f0d3	-0.023552334
3	0xbdc7aa3a	-0.09749265
4	0xbcb9d665	-0.02268524
5	0x3de04db1	0.109523185
6	0x3c32b20f	0.01090671
7	0x3e07a262	0.13245538
8	0xbca594c0	-0.020212531
9	0x3dea97bd	0.11454723
10	0xbd8dd779	-0.06925864
11	0x3d095cf8	0.033535928
12	0x3db29afd	0.08720968
13	0xbc609e71	-0.01370965
14	0x3cc11090	0.023567468
15	0xbb96d580	-0.004603088
16	0x3d97bf21	0.07409502
17	0xbc94ba61	-0.018155279
18	0xbda8d5a0	-0.08243871
19	0x3dae208c	0.085023016
20	0x3d135490	0.035969317
21	0xbd5cf189	-0.053941283
22	0xbd333705	-0.043753643
23	0x3d3d03d5	0.046146233
24	0x3d1fbc1c	0.038997754
25	0x3d38b7a2	0.045097
26	0xbdd5c476	-0.104378626
27	0x3c2096df	0.0098015955
28	0x3d89030d	0.06690035
29	0x3d1411a1	0.036149625
30	0xbdd56490	-0.104195714
31	0x3d89ab51	0.06722129
32	0x3b332047	0.0027332471
33	0xbd472647	-0.04862049
34	0x3dc6f09b	0.097138606
35	0x3d85dd2f	0.06536328
36	0x3d7326db	0.059363227
37	0x3d861adf	0.06548094
38	0x3e18bb7f	0.14915274
39	0xbdbdda29	-0.092701264
40	0xbbe28d59	-0.0069138226
41	0xbcfb5ad3	-0.030682957
42	0xbd0646ac	-0.03278224
43	0x3c026db6	0.007960727
44	0x3da34535	0.079721846
45	0x3d422528	0.047398716
46	0x3d13d37d	0.036090363
47	0x3a95692d	0.0011399143
48	0x3dad5219	0.084629245
49	0x3da9b639	0.08286709
50	0xbe038c4d	-0.12846489
51	0xbd8bf76a	-0.068343
52	0x3cd6cf1c	0.026221804
53	0x3ce5eae2	0.028066102
54	0x3d3dc67b	0.046331864
55	0x3d3c95e5	0.046041388
56	0x3e3e815a	0.18604031
57	0x3db49d6a	0.08819087
58	0x3dc2b8f1	0.09507931
59	0xbd1f7bd3	-0.038936447
60	0x3d652ad0	0.055949032
61	0x3dc8c8ae	0.098039016
62	0xbd0b7769	-0.034049425
63	0x3d6b9da9	0.057523403
64	0x3ddc6459	0.10761327
65	0x3c427b64	0.011870239
66	0xbc44bd0f	-0.012007966
67	0x3e50dce7	0.20396768
68	0x3dcf50e2	0.10122849
69	0x3c9e9708	0.019359127
70	0x3dece018	0.1156618
71	0x3e3e3792	0.18575886
72	0x3e16659e	0.14687201
73	0xbc025317	-0.0079543805
74	0x3da675f4	0.081279665
75	0x3cc968b2	0.024586055
76	0x3d9be8bb	0.07612749
77	0x3e2f3bad	0.17112608
78	0x3db9e1cc	0.090762705
79	0x3cef955d	0.029246027
80	0x3dcd2e89	0.100186415
81	0x3d553bcb	0.052058976
82	0xbcfafeaa	-0.030639011
83	0x3e04845f	0.1294112
84	0x3e2e79cd	0.17038651
85	0xbdcbc554	-0.09949747
86	0x3df7b82b	0.12095674
87	0x3df9742d	0.12180362
88	0x3e007bf7	0.12547289
89	0x3dad34da	0.08457346
90	0xbd463456	-0.048389755
91	0x3e0ed6b0	0.13949084
92	0x3dfe396f	0.12413298
93	0x3d4fc344	0.05072333
94	0x3e25d306	0.1619378
95	0x3e35e3f1	0.17762734
96	0x3de6b5f4	0.112651736
97	0x3e436c50	0.19084287
98	0x3d14a126	0.036286496
99	0x3d54838f	0.051883277
100	0x3d42bf5c	0.047545776
101	0x3d1e1d25	0.038602013
102	0x3c4bf1b8	0.012447767
103	0xbd63dffa	-0.055633523
104	0x3dc04226	0.09387617
105	0x3e0646bc	0.1311292
106	0x3d974843	0.0738683
107	0x3d7910c3	0.060807
108	0x3dcee2f6	0.10101883
109	0x3e4dacb2	0.2008541
110	0x3d1593da	0.036517955
111	0x3de1da6d	0.110279895
112	0x3c7e618b	0.015526186
113	0x3e0ea00d	0.13928242
114	0xbc0ef6cc	-0.008725833
115	0x3c299969	0.010351517
116	0x3e275c3e	0.16343781
117	0x3e1587a1	0.1460252
118	0x3d6f35b1	0.058400813
119	0x3dc4d3c1	0.09610701
120	0x3e880d44	0.2657262
121	0x3dc13b13	0.09435096
122	0x3e4003a9	0.18751396
123	0x3d846dba	0.06466241
124	0x3d5bbe2a	0.05364815
125	0x3e274b06	0.16337213
126	0x3d1010de	0.035172336
127	0x3e109a39	0.14121331
128	0x3d0cba48	0.03435734
129	0xbd408469	-0.047001276
130	0x3de21e05	0.11040882
131	0xbdb01890	-0.08598435
132	0x3da25395	0.07926098
133	0x3d9ec0b1	0.07751597
134	0x3c871dee	0.016493764
135	0x3d04744c	0.03233747
136	0xbc54c510	-0.0129864365
137	0xbc9a4be9	-0.018835025
138	0xbcf78942	-0.030216817
139	0x3ccde556	0.02513377
140	0xbdcaed20	-0.09908509
141	0x3d73a1a8	0.05948034
142	0xbc968e82	-0.0183785
143	0xbd39390f	-0.04522043
144	0x3de48368	0.11157876
145	0x3dba30a2	0.09091307
146	0x3d4f60d0	0.050629437
147	0x3dac4dea	0.084132984
148	0xbcf74432	-0.030183885
149	0xbdd20a2b	-0.10255846
150	0xbc073077	-0.008251301
151	0xbdb9e4e9	-0.09076864
152	0xbdacc308	-0.08435637
153	0xbddde1e8	-0.10834104
154	0xbda40e21	-0.080105074
155	0x3c9112bd	0.01770913
156	0x3d9e35f0	0.077251315
157	0xbdcdb865	-0.10044936
158	0xbd9de37a	-0.07709403
159	0x3c51a50d	0.012795699
160	0x3de93ab3	0.11388149
161	0x3ce44c40	0.02786839
162	0x3e082a4c	0.13297385
163	0x3cfbe957	0.030750914
164	0x3d7f0be4	0.0622672
165	0x3d357b21	0.044306878
166	0xbdd4b6ad	-0.10386405
167	0xbda5757c	-0.08079049
168	0x3c41c9e9	0.011827924
169	0xbcebaa3f	-0.028767703
170	0xbd229e2d	-0.03970163
171	0x3de5afbd	0.1121516
172	0x3cbe1253	0.023202097
173	0xbde2b451	-0.11069549
174	0xbd4f5b68	-0.05062428
175	0x3d0b1f95	0.033965666
176	0xbc41a49d	-0.011819032
177	0xbd3366f7	-0.043799367
178	0x3cb812c1	0.02246988
179	0xbdc7272e	-0.0972427
180	0x3daf09c5	0.08546785
181	0x3d104415	0.035221178
182	0x3e00e4ff	0.12587355
183	0xbddfcbaa	-0.10927518
184	0xbd8d992a	-0.06913979
185	0x3cf979b7	0.030453546
186	0xbd46b991	-0.048516814
187	0x3dbda991	0.09260858
188	0x3dcc2a28	0.09968978
189	0x3cfb7754	0.030696549
190	0xbdbad7f1	-0.09123219
191	0xbdc81913	-0.097704075
192	0x3dc2e0a7	0.09515505
193	0x3dfac335	0.12244264
194	0x3db24e94	0.08706394
195	0xbc1bf994	-0.009519953
196	0x3dc35263	0.095371984
197	0x3ce52aa1	0.027974429
198	0x3db026ce	0.086011514
199	0xbd38694f	-0.045022305
200	0x3d9a532f	0.07535397
201	0x3cbd482a	0.0231057
202	0x3e220a09	0.1582414
203	0x3dbef6ca	0.09324415
204	0x3ddc8328	0.107672036
205	0x3d58d29a	0.05293522
206	0xbd84c998	-0.064837635
207	0xbdb50f73	-0.08840837
208	0x3e014f60	0.12627935
209	0x3cd431c8	0.025902644
210	0x3d9c61bc	0.07635829
211	0xbcbc1f5c	-0.022964172
212	0x3e415482	0.18879893
213	0xbdc2ba66	-0.09508209
214	0x3cf3d961	0.02976674
215	0x3dd37901	0.10325814
216	0xbd9dd775	-0.07707111
217	0xbd4950b8	-0.049149245
218	0x3d41814c	0.047242448
219	0x3d9e86bd	0.07740543
220	0xbd0d4d6f	-0.034497675
221	0xbcb57eb1	-0.022155138
222	0xbd2c1e58	-0.042021126
223	0x3e19ac36	0.150071
224	0x3da90197	0.08252256
225	0xbce0e5c0	-0.027453303
226	0x3bcfb455	0.006338636
227	0xbd27f0a9	-0.041000996
228	0x3e0e2c16	0.13884005
229	0x3db3df39	0.08782811
230	0x3d97422b	0.073856674
231	0x3ca3a6e6	0.019977044
232	0xbc9694da	-0.018381525
233	0x3ce6dd3a	0.02818166
234	0xbd58fac3	-0.05297352
235	0x3d862244	0.065495044
236	0x3dd86883	0.10566809
237	0x3c9e6697	0.019336028
238	0x3dc92b67	0.098227315
239	0x3d652450	0.055942833
240	0x3c22417c	0.009903308
241	0x3db85312	0.090002194
242	0x3d08f5e5	0.03343763
243	0xbd592482	-0.053013332
244	0x3c72ea41	0.014826358
245	0x3d90fe9e	0.070798144
246	0x3bfef813	0.0077810376
247	0x3da07376	0.078345224
248	0x3e623047	0.22088729
249	0xbdf2ff68	-0.11865121
250	0x3d28a3e1	0.041171912
251	0x3dbc8420	0.09204888
252	0x3de141e7	0.10998898
253	0x3d9298d3	0.07158055
254	0xbcfbae6f	-0.030722825
255	0x3e1db2d5	0.1540025
