Models/best_model.pt (torch, 184930 bytes, 11 tensors)

conv1.weight f4 [32, 22, 5]
00000000: 46ae 673d aac1 2a3e d7c4 963d 5596 503e
00000010: 1bcc 443c 0b85 de3d e8ed fbbc 5697 ec3d
00000020: bac6 0e3d 2e4d a33c 7193 43bd b01c 11be
00000030: 2f8e 41bb 8a45 d6bd a2cb 8fbd 4c41 16bd
00000040: 5c46 f03d 05ae 783d 802a db3d 1392 0c3e
00000050: 14c4 4dbd 9c08 f63d 6dbe fc3b d385 e93d
00000060: 9b62 4b3d a5bd 8f3d 87a0 013e 91c6 bd3d
00000070: 9b36 2e3c 1a76 5d3d cd57 c4bd f69c f43b
00000080: 9d0a 1abe 4ad8 1bbe bf31 d0bc 70b5 2dbe
00000090: a7bd 113d be70 fabc ab85 afbd 57c8 65bd
000000a0: 75b5 e4bd 8fd6 f7bd 9adf 4dbd 801d acbb
000000b0: bd20 c7bd d8a5 53bc 435d a83d 840a da3d
000000c0: 9baa 063d 7835 2d3d 6643 c7bd 224a 78bc
000000d0: 0cbb fabd b1a9 bfbd 7a01 c0bd 6c04 47bd
000000e0: 0b99 8abd ae9d 2cbd 7d7e a3bc d9c6 e9bc
000000f0: 8bef d23c f125 723d 5d53 d83c a280 583d
00000100: 6f1f 09bc f98a fb3d ba98 8c3d 511b 16bd
00000110: 11f5 99bd 6ce9 2cbc ab3f 7a3b 2e73 08bd
00000120: 8e2b bebc 4065 afbc 20be 39bd 4e66 adbd
00000130: c3d8 70bc 3022 48bd d580 cdbd 1a32 5ebd
00000140: 19dd 02be 5dad 08be e5a0 b5bd 5cb3 63bb
00000150: 9968 f5bc 0c4e d83d 83b7 7b3e 50a2 d43d
00000160: 80cf 773e d394 733e f61b 7abd 4dd1 32bb
00000170: 482d 00bd 029c e63d 0446 c23d cfaf a0bc
00000180: d8a1 583d ba6f 83bd 357b 59ba 6a0a c23d
00000190: 5bab b0bd 4c9e 853c addf 86bd 9f81 233d
000001a0: f136 a03d 528b 203d 37bd dc3d 5f0d 3b3e
000001b0: ebc8 3a3e 98c1 553e c3e2 dc3d 4f39 053e
000001c0: cffe c5bd 9daa 25be 00e0 b6bd 0bcb f2bc
000001d0: 0e21 4ebd 0c1d c5bd d114 c7bd a99a 9fbc
000001e0: ea29 97bd 6aef bfbd be00 8c3c 2b19 733d
000001f0: ff12 023e 7a37 683c 7436 edbd 53e1 43bd
00000200: 6b53 10be 4caf 90bd a804 483d d20c cc3d
00000210: b401 adbc e786 bf3d 2c79 403d 29f7 433d
00000220: 494f 4e3d 55b6 563d 770a b83d 9ea2 9b3d
00000230: 7864 8a3b 9267 7ebd 139b b6bd e44a ebbd
00000240: 376d d3bb be16 89bd b801 86b9 bfc8 8fbd
00000250: a979 a63b dfee a43d 8895 f43b 0884 f93d
00000260: f8f1 a53c f43c 803d fd3e f83d b37e 4e3d
00000270: 924f a93d 318e aebb a554 aa3c 11d3 903d
00000280: 41b3 f0bc fc48 853d 426b 003e b825 d23d
00000290: 6e41 c63d 686d f2bd ec03 0fbd 6b03 c3bd
000002a0: 066a 93bc 9215 ac3d 18f5 d03d f361 0dbd
000002b0: ce4c dbbc 43c5 10bd 6a9e ce3d 02df ea3c
000002c0: bf6f 06be 6dc5 ee3d 1d23 a0ba 1061 a73d
000002d0: 8dc0 bcbd ed4e 96bd 7ec3 b2bd fa36 fabd
000002e0: f923 403d 132c bdbc c545 783c 0fb7 71bd
000002f0: 0deb 34bd c222 573b dc39 39bd 04ff fb3c
00000300: 992d 4dbc 79fe 933d 149a 1b3e 02ee d9bd
00000310: 9c23 4cbd cfdc 22be b0ce 11be f3e8 5abe
00000320: 0a3f c7bd 664d 7abd 17a2 ddbc fe2d c9bd
00000330: 93cb 65bd 350a f6bd cbf3 50be 3131 43be
00000340: 80e8 3cbe 0d10 02bd 9325 a7bc 0d3c ec3b
00000350: 1b6e dc3c 9d85 5bbc 1248 a53d e6f8 bf3d
00000360: 5fdf 8f3d d34d dbba 6718 bb3d 8dee 833d
00000370: 9535 a4bd 9d90 9dbd dab5 24bd e551 363d
00000380: 9a3b d5bb 948e e03d 9deb 1c3c fedb 8e3c
00000390: e81c 6bbb 7174 983d 0eb4 24bd 17b3 3d3c
000003a0: 74f5 3c3d dc71 713c f6af ca3d d096 a23d
000003b0: c2a6 143e 6acf 293e 3a15 a83d e7ef 04bc
000003c0: 76df eb3c 8c6a c0bc b8d8 8c3c fbc3 ea3d
000003d0: ff62 df3d 7471 30be 0101 acbd 0a06 86bc
000003e0: fe15 c63d 5f37 c23c b6e8 67bd 177a 863c
000003f0: 9b95 3f3d 02ce 6ebc 81e3 abbc e680 0bbd
0.056562684 0.1667544 0.07361763 0.20369847 0.012011553 0.1086522 -0.030753091 0.115523025
0.03485749 0.019934263 -0.047748033 -0.141711 -0.002953421 -0.10462482 -0.07021262 -0.036683366
0.1173217 0.060712833 0.107014656 0.13727598 -0.050235823 0.12013361 0.00771313 0.11402478
0.049654584 0.07018594 0.12658893 0.09266389 0.010633136 0.05406771 -0.09587059 0.0074650003
-0.15043111 -0.15219226 -0.025414346 -0.16963744 0.035581257 -0.030571338 -0.08570417 -0.056099262
-0.11167423 -0.12101471 -0.05026207 -0.00525254 -0.09723041 -0.012917958 0.08220913 0.10646537
0.032877546 0.04228732 -0.09729652 -0.015154393 -0.122427076 -0.09358538 -0.09375282 -0.0485882
-0.06767472 -0.042142563 -0.019957775 -0.0285372 0.025748989 0.059118215 0.026406938 0.05285705
-0.008369311 0.12282366 0.06865068 -0.036647145 -0.07517446 -0.010553699 0.0038184922 -0.03331297
-0.023214128 -0.021410584 -0.045347333 -0.08466779 -0.0147001175 -0.04886073 -0.100343384 -0.054247
-0.12779655 -0.13347383 -0.08868579 -0.0034744358 -0.029957103 0.10561761 0.24581723 0.10382521
0.24200249 0.2378724 -0.061061822 -0.0027285398 -0.031293184 0.11260225 0.09486011 -0.019615082
0.05288872 -0.064177945 -0.00082962523 0.094746426 -0.086264335 0.016310833 -0.065856315 0.03991854
0.07822979 0.039195366 0.10778277 0.1826682 0.18240707 0.20874631 0.10785439 0.13010143
-0.096677415 -0.16178365 -0.08929443 -0.029637834 -0.050324492 -0.09624681 -0.09720767 -0.019482927
-0.07381041 -0.093718365 0.017090198 0.059350174 0.12702559 0.014173383 -0.11582652 -0.047822308
-0.14094321 -0.07064685 0.048832566 0.09963383 -0.021118976 0.093519025 0.04699056 0.047843132
0.05036858 0.05241998 0.08986371 0.07599376 0.0042234026 -0.06211049 -0.08916297 -0.11488894
-0.0064522284 -0.06693791 -0.00025559752 -0.07020711 0.005080421 0.080533735 0.0074641146 0.12183386
0.020256981 0.06261626 0.12121389 0.0504138 0.0826713 -0.005327009 0.020792315 0.07071508
-0.02938235 0.06508061 0.12540916 0.102611005 0.096804485 -0.11837274 -0.03491585 -0.09522136
-0.017994892 0.08402552 0.10202998 -0.03451724 -0.026770022 -0.035344373 0.10088809 0.028670792
-0.13128565 0.1165875 -0.0012217496 0.0817281 -0.09216414 -0.07339273 -0.087286934 -0.12217517
0.046909306 -0.023092305 0.015153353 -0.05901247 -0.044169474 0.0032827114 -0.045221195 0.03076125
-0.012523078 0.07226271 0.15195495 -0.106410995 -0.049838647 -0.15904544 -0.14239001 -0.21377926
-0.097288206 -0.06110897 -0.02705483 -0.098232254 -0.056102347 -0.120136656 -0.204055 -0.19061734
-0.18448067 -0.03175359 -0.020403659 0.007209307 0.026907971 -0.013398555 0.08070387 0.093736455
0.070250265 -0.0016731567 0.09135514 0.06441984 -0.080180325 -0.076935984 -0.04021249 0.044511694
-0.006507349 0.109646946 0.009577659 0.017438885 -0.0035875384 0.074440844 -0.040210776 0.011578343
0.04613252 0.014736619 0.09896843 0.079389215 0.14516738 0.16583028 0.08207174 -0.008113838
0.028793078 -0.023488306 0.017193183 0.114631616 0.10907554 -0.17230779 -0.08398629 -0.016360302
0.096721634 0.023708044 -0.056618415 0.016415639 0.046773534 -0.014575483 -0.020982506 -0.034058474

conv1.bias f4 [32]
00000000: 6be7 cbbd 3702 82bd 8de4 f1bd 671f a4bd
00000010: 3468 d5bd 7b44 afbd b400 1cbe 4b63 673d
00000020: 26a6 4c39 89c9 34be 669b 6abd 0f8f b3bd
00000030: 2afe 3bbd 53f5 643d f64d c2bd b668 a9bd
00000040: 5a40 dc3c ed67 16be a299 fabd 678f 07be
00000050: 1638 8cbd 1b6c b9bd ba26 94bd cf04 8d3d
00000060: a079 42be 8ae4 a7bc 553e 41be 01dc b43c
00000070: 23da b0bc 8350 dc3d b860 3d3c ca6b 963d
-0.09956249 -0.06348079 -0.11811171 -0.08013802 -0.10420266 -0.085579835 -0.15234643 0.056491178
0.00019516851 -0.17655005 -0.057277106 -0.08767521 -0.045896687 0.055898022 -0.09487526 -0.08271925
0.026886154 -0.14688082 -0.122363344 -0.13238297 -0.06846635 -0.090538226 -0.07233949 0.06885683
-0.18991709 -0.020494718 -0.18871434 0.022077562 -0.02158839 0.10757544 0.011558704 0.07344778

conv2.weight f4 [64, 32, 3]
00000000: 1855 93bd 39d0 0dbe 3531 e2bc e953 74bd
00000010: 9459 c83d 5e0f 8fbd abac bebd 4214 dabc
00000020: 571e f23c ad92 36be 5793 3abe 6e63 58be
00000030: 9c83 ce3d 9f29 4a3b e7b3 5d3d 5fdd 84be
00000040: b845 36be e3ee 71be 4703 efbc 3460 733c
00000050: f9a4 3dbd 6c15 88bc 1ac3 8abd c059 ce3d
00000060: 55ce 793c ba59 1f3d 0deb 323c 22e5 8cbd
00000070: 4112 853d 0099 a53d 4304 7d3b 65f8 003e
00000080: f7b2 4e3d 0307 3c3c 0b0e 003d 67dd e93d
00000090: 15b9 8fbd 1862 c73b a2de 34bd 94ac a6be
000000a0: 4eb1 adbe 36f9 95be 1c50 023d 75d7 f63d
000000b0: f15c 7e3d b33f 3cbc f181 193e 65a1 f6bb
000000c0: 25ba 6ebe 5484 4fbe 9011 94be bf40 f7bc
000000d0: f17e 06be 76da b5bd cc49 3cbd fefc 10be
000000e0: a778 68b9 db15 b33d 6ab5 a93d 5a1a c43c
000000f0: 8215 02bd f0d8 683d 8fed cd3d b8a9 3a3e
00000100: 31c5 db3d 5683 013e 5519 efbc f314 513d
00000110: f265 bc3c 9848 b43d f571 96bd 1cee a53b
00000120: 81e2 413d c097 d7bc d056 c53d 6e2b 9cbd
00000130: 0a86 ac3d 2fe0 2dbc 711b f13d 18e6 da3d
00000140: feb8 afbd 777a 82bd 1e2b 4abd 18c1 2a3d
00000150: 18c6 853d e5b3 c73d b31e a13c 236c 2e3b
00000160: 06a8 853d 0e84 853d 0f34 973d 61be ed3d
00000170: d8d2 e2bc df71 4abc 8cd2 1b3d 233c 13bd
00000180: 81af 5bbc 7e94 afbc fda9 17bc 913e 82bc
00000190: 753f 343d 1de2 ecb9 f91b f1bc cc2f 073e
000001a0: 953c 913d 5fd7 e6bc ec28 5eba 2de9 8bbd
000001b0: 67ca 043d dd0d de3d 1a46 a13a b10a 3ebe
000001c0: 19ca 98bd 8a72 d2bd 2aeb 8f3c 332c 88bb
000001d0: e051 953b 4722 a73d 6348 6fbd eb54 f93c
000001e0: 8d29 e8bd 9be6 c3bd a642 95bb 978a eebb
000001f0: 73ff 2cbd 9344 0f3c c5d7 0e3e d6e5 9d3d
00000200: c2a7 123e 6f5a 913c eed8 a93c d4c7 6bbc
00000210: 9619 17be 1ad5 4ebd 6a3d c03c 322a 02be
00000220: 8f19 0abe 9a22 52bd 64c0 203d dee8 14bc
00000230: 39ba 2c3d 880a cebd 5511 2f3b 70fb b0bd
00000240: aa76 e7bc 1e26 5fbd 1a32 c1bd ccfa 2e3d
00000250: ddbd 003e 781b 343e d093 c93d c667 b43d
00000260: 38db 293e 40ea 6bbd e518 91bd bfd6 98bc
00000270: 32e6 e4bd 5e7b 13be c783 4bbd d5b3 0dbe
00000280: b901 37be dd31 6ebe 1276 8b3d 02cd 8fbd
00000290: c36c 883d f687 6ebe 1031 a2bd 672d 41be
000002a0: 30ea 113c 5767 e5ba 3ff1 523d 022c 87bc
000002b0: 18c1 853d c8b6 30bc eb30 09be 9245 1fbd
000002c0: fbad ebbc 1f40 77bd 6602 86bd 64b5 8a3d
000002d0: 8af2 ae3c b5fe a93d 718a 1a3e b4ed 25be
000002e0: 234b 09be e16d adbd 20dd eabd b003 f4bc
000002f0: 0a61 96bd b593 5cbd 35d0 cbbd b6b8 77bb
00000300: f3da 333d b397 0e3e 462d 513e dff1 bcbc
00000310: b1c1 1239 2297 e2bd 4b77 123e d624 a53c
00000320: 1d68 013e cde7 b2bd dfd9 9dbd ae28 afbd
00000330: 216a 75bd 556d 4dbd 64a9 4e3c ea62 033e
00000340: 0aa5 3b3e 86f9 bf3d 8249 acbd bf69 26be
00000350: 6afc 28be 72b6 ac3d ac92 063e 8fb2 ce3d
00000360: b056 343d 55a5 413e 0369 3f3e cbb1 d7bd
00000370: e29d 60bd f14a 8e3c 6a8c e9bd e6eb 73bd
00000380: 7b7a 363d 5cb4 c2bc 87bf fabd 935c 493c
00000390: 5af4 19be cdaa 50be e200 95be ca38 b23c
000003a0: 0df4 e2bc 63e1 c6bd 7b26 2cbe 0eef fcbd
000003b0: b91d 8bbd 0eb8 54bd 9920 79bd 056e c3bd
000003c0: c333 ca3c 6812 69bd ff26 76bd fc3a 6f3d
000003d0: c75a c03d dc3f 9a3c 83aa e0bc d0a8 27bd
000003e0: f0f7 85bd c669 0bbe 952b 39be fbe2 d4bc
000003f0: 0113 b3bd dceb 2bbd c88c 8fbd 9486 d33d
-0.07193965 -0.13848962 -0.027611354 -0.059650335 0.09782711 -0.06985353 -0.093102776 -0.026620988
0.029555483 -0.1782939 -0.18220268 -0.2113168 0.10083696 0.0030847562 0.054126646 -0.25950143
-0.17800033 -0.23626284 -0.029176367 0.01485448 -0.04629991 -0.016611777 -0.06775494 0.10075712
0.015246947 0.03890393 0.010920298 -0.06879641 0.06497622 0.08085823 0.0038607277 0.12594755
0.050463643 0.011476281 0.031263392 0.11419182 -0.070177235 0.0060846917 -0.04415763 -0.32553542
-0.33924335 -0.29291695 0.03181468 0.12052814 0.062100355 -0.011489796 0.14990975 -0.007526564
-0.23313196 -0.20265323 -0.2891965 -0.03018224 -0.13134362 -0.08879559 -0.045968816 -0.14159009
-0.0002217019 0.08744403 0.08286555 0.023938347 -0.031758793 0.056847513 0.10055076 0.18228805
0.10730971 0.12647757 -0.029186884 0.05104537 0.02299783 0.08802909 -0.07345954 0.0050637852
0.04733515 -0.026317477 0.09635699 -0.07625471 0.084240034 -0.010612532 0.11772812 0.10688418
-0.08580206 -0.063710146 -0.049357526 0.041688055 0.06531924 0.09751109 0.019667959 0.0026614747
0.065261886 0.06519328 0.07382976 0.116085775 -0.027688429 -0.012356251 0.03804259 -0.035946023
-0.013408543 -0.021433111 -0.009256837 -0.015898975 0.04400583 -0.00045181895 -0.029432284 0.13201827
0.07091633 -0.028178869 -0.0008474726 -0.06831584 0.03241959 0.10842488 0.0012304217 -0.18558766
-0.07460422 -0.10275753 0.01756819 -0.0041556596 0.0045568794 0.08160835 -0.058418643 0.030436
-0.1133605 -0.09565469 -0.0045550643 -0.007279705 -0.042235803 0.008744377 0.13949497 0.07709853
0.14321807 0.017743317 0.020733323 -0.014390904 -0.14755854 -0.0504962 0.023466785 -0.12711409
-0.13486312 -0.05130253 0.039245978 -0.009088723 0.042169783 -0.100606024 0.0026713212 -0.08641708
-0.028254826 -0.05447971 -0.09433384 0.042719647 0.12572427 0.17588603 0.09842646 0.08808856
0.16587532 -0.057596445 -0.070848264 -0.018657086 -0.11176719 -0.1440253 -0.04968622 -0.13838132
-0.17871751 -0.23261209 0.068096295 -0.07021524 0.0666137 -0.23294052 -0.07919514 -0.18864976
0.008905932 -0.0017502111 0.0514996 -0.016500477 0.0653097 -0.010785766 -0.13397567 -0.038884707
-0.028769484 -0.060363885 -0.06543426 0.06772879 0.021355886 0.08300535 0.15091874 -0.16203958
-0.13407569 -0.08468223 -0.114679575 -0.029786915 -0.073427275 -0.053851802 -0.09951822 -0.0037799305
0.043909978 0.13925056 0.20427427 -0.023064552 0.000139958 -0.110639825 0.14303319 0.020159166
0.12637372 -0.08735619 -0.07707571 -0.08552681 -0.059915666 -0.050153095 0.012613628 0.12830701
0.18324676 0.09373765 -0.08412458 -0.16251276 -0.16502538 0.08433236 0.13141888 0.10092651
0.044027984 0.18910725 0.18692403 -0.10531958 -0.05483807 0.01736972 -0.11403735 -0.059551142
0.0445504 -0.023767643 -0.12243562 0.012290138 -0.15034619 -0.20377655 -0.29102236 0.021755595
-0.027704263 -0.09710958 -0.16811554 -0.123502836 -0.067927785 -0.05193334 -0.060822103 -0.09542469
0.024682885 -0.05690232 -0.060095783 0.05840586 0.093923144 0.018829279 -0.027425056 -0.040932477
-0.06541431 -0.13614568 -0.18083031 -0.025987139 -0.08743859 -0.04197298 -0.07009274 0.10328403

conv2.bias f4 [64]
00000000: 099c c3bd 4adf c13b 1ac0 563d 5c99 e33c
00000010: dcb8 88bd d408 1abe f900 183d 38f1 83bd
00000020: 235a 383a 9215 b9bd 3cdd 2cbd ba99 2cbd
00000030: f14a fcbb af71 8bbc 4884 0cbe 71c4 b0bd
00000040: 96c9 3e3d a376 343a 978b 1f3d 00b4 80bc
00000050: 2bad f13c fa2a 4d3d 5575 8ebd 03d4 85bc
00000060: d14d 11be c985 57bd a5a2 8bbd bbc7 06be
00000070: 8422 cf3d 0b61 12bd 5f4b 623d cd6c 87bc
00000080: 0134 17bd aa22 053e b5ed 6c3a c423 68bd
00000090: d268 c0ba 1cf6 353d 1fc3 7a3d e80c cd3d
000000a0: 43e3 07bd 9fbd 9abd 4aa6 cfbc 4753 a1bd
000000b0: 4a0b 683d 8951 4fbe 2214 a0bd dcaf 9cbd
000000c0: 704d d43d 5b86 0f3d bef6 b1bd 3b36 9f3b
000000d0: ec7c c9bc 5eb2 27bd 9f99 81ba ac56 65bd
000000e0: 98bc 99bd 00af 663d 506e eebd cc98 b6bd
000000f0: 813a 9dbd 802d a8bd 34b7 463d 46d6 d9bd
-0.09551246 0.0059165107 0.052429296 0.027783088 -0.06675884 -0.1504243 0.037110303 -0.06442493
0.00070324744 -0.09037317 -0.042203173 -0.042138793 -0.0076993634 -0.017021982 -0.13722336 -0.08631218
0.046578966 0.00068841333 0.038951483 -0.01571083 0.029501518 0.050089814 -0.06955973 -0.016336447
-0.14189841 -0.05261782 -0.06818131 -0.13162129 0.10114005 -0.03573708 0.05524766 -0.016531372
-0.03691483 0.13001505 0.00090381067 -0.056674734 -0.0014679676 0.04442416 0.06122124 0.10012227
-0.033175718 -0.075556986 -0.025347847 -0.07877212 0.05665139 -0.20245947 -0.0781634 -0.0765073
0.103663325 0.03504024 -0.086896405 0.0048587597 -0.0245957 -0.04094159 -0.0009887702 -0.05599086
-0.075066745 0.056319237 -0.11642134 -0.089158624 -0.07677174 -0.082118034 0.04851456 -0.106365725

lstm.weight_ih_l0 f4 [256, 64]
00000000: 8d1d 14bd ca5a c33c 490f 063c 9c35 38bd
00000010: 2307 f6bd 373a bcbd e67e 2c3e 4145 81bd
00000020: b85e 7cbe 30a8 a73d c790 71bd 8505 e6bd
00000030: 0930 683e 6e29 10be b0fe 8c3d ee65 d43c
00000040: 195c a8bd 45ef 803d fdc9 82bc 8061 38bd
00000050: e124 d43b db95 e03d 9363 f93d d6a6 153e
00000060: 6bac 053e 2897 a93d 1f21 efbc 5cfc 3f3e
00000070: 1724 ca3c c854 633d 82ce 97bd b19d 63bc
00000080: 6007 1a3d 4d92 71bc ac0b 0d39 7760 d73b
00000090: 073f 98bc f1a8 863d 2dff d3ba d890 98bd
000000a0: 6d4c f0bd 5578 d8bd a361 6dbd 2afb 8bbd
000000b0: 358a be3d 7b5d 87bd 2e64 81bd dd5d 3b3e
000000c0: 8fc0 593d e37a 8b3d ac60 16be 389e 8f3d
000000d0: d81e f8bd 80c0 90bb 447e 693d bd9f 293d
000000e0: a2b1 b43c d30f 123d 65ac 34bd 4ab5 19be
000000f0: 0d2e 04be 48b9 373d 2966 33bd 18c0 afbd
00000100: 7d3e 8e3d 8e92 63bc c3ad cf3b 5dda b5bb
00000110: 8588 c23c 7388 27bd dce4 ec3d cf69 3cbc
00000120: ab68 d4bc d571 883b d7e5 973d 4734 94bd
00000130: 2859 a1bc 84a3 083d 8c99 353d 5674 253c
00000140: dc64 a83d 5bb4 cfbc 80cf 393d d8c8 8e3d
00000150: 6e72 39bd 7ec4 7fbd 89e8 8a3d 6984 113d
00000160: 5085 943c 254c a0bc ac6d e93c 310e 48b9
00000170: 6009 da3b d80c 903c 3835 033d 6679 dabc
00000180: b86d b33d 1a25 4b3d 3ac2 baba 901f 10bb
00000190: 4709 2e3b 6cbf 6e3c 3f53 5fbd 4f35 b3bd
000001a0: b9cc 943d e5cd f23c 96cb 573d 235d 173d
000001b0: 7c0a 82bc d9ca af3d 7d0a 083e ba2e 0c3e
000001c0: d715 333c ba86 c43c e575 b93a 54c5 19bd
000001d0: 1a0e 983d 1e42 f03c adde 943d 5f21 e23c
000001e0: 40c2 013c 2ed5 403d cf75 6c3d c66a a73d
000001f0: 2c01 853d 5a9b b0bd 8edf bebc 8855 633d
00000200: c1f3 fcbc 51b5 5bbd a377 9d3d 86d0 b338
00000210: a6e5 e43d acb0 38bc 1c19 c4bc 3f0a 463d
00000220: 656f ea3c ed3e 0ebd f3cf 37bd e50d e9bc
00000230: 5901 3abd 622e 183e 34f2 50bd b375 f93c
00000240: 7fb9 cc3b c458 a93d a4dd ca3c e724 943c
00000250: 23f1 ab3c 4001 aebd 7e8d 2f3c 6380 4c3d
00000260: 8101 c2bb 59be ff3d 1159 05be f609 a2bd
00000270: e792 1ebd 1a35 c1bc 13f9 6a3d 1fa1 8c3d
00000280: 5a5c 1b3d 95fc 7d3c 8a24 b7bd b0c5 c6bc
00000290: 304b 143d 39ac 16b9 bb44 80bd 0cee 2cbd
000002a0: 6f7e ebbc e6ab 843d 0caa 23bd 1a73 b0bd
000002b0: a458 8bbd 5a16 b63c b79e 883d f955 393d
000002c0: 5f1f c5bc 18a2 d83b 0ee4 32bb 83f7 1a3d
000002d0: df3f 1ebd 26a2 c23c 3f36 45bd 6efa 133d
000002e0: 69d3 5f3c e4a8 b1bd 5995 c9bd 3362 d43c
000002f0: 54bc 5cbd d696 343e d7c9 b2bb 0604 763d
00000300: c2f7 62bc a1ba 93bd c1d1 223e 84ec 3dbe
00000310: a49e 223e c687 f3bd cf43 f5bc 2c9b 9bbc
00000320: a44a 483c 1dd2 0a3e c0e1 45bd 8af7 4dbb
00000330: c48e c73d f366 733c 2b77 57bc 503c b1bc
00000340: 0d01 b33c 8de0 5d3e 40ab 233c 487b e0bd
00000350: bacc c13d d445 513e ef07 d73c 465f df3d
00000360: 1ef0 c43c 1da7 1b3e 1b4d 163d 6688 353e
00000370: 08df d1bd 39ad fbbd 38c1 3bbd 913a 3d3d
00000380: 816a f6bb a305 a03c 3330 12bd 4650 0cbe
00000390: 9264 1f3e 654d 9ebd 3297 65bc 7144 67bc
000003a0: 7584 edbd 1f44 253d 6d24 cc3c 16eb 3cbd
000003b0: 17ba 463e 22e6 6abd 8ef4 03be 1a20 0f3e
000003c0: c4de b4bb f257 22bd 993e b13d 65a1 4f3e
000003d0: aaed a4bd ce77 143d 981d 22be 0674 51be
000003e0: a4b4 bf3d 1030 a9bd acfc 82bd 85b1 9bbc
000003f0: 4e59 bfbd 43a9 ea3d 7802 8cbd 35af 183e
-0.036160994 0.023847003 0.008182355 -0.044973 -0.1201308 -0.09190791 0.16845283 -0.06312037
-0.24645507 0.08186376 -0.05897596 -0.112315215 0.22674574 -0.14078304 0.06884515 0.02592751
-0.08220691 0.06295637 -0.015965456 -0.04501486 0.006474123 0.10966083 0.121771954 0.14614424
0.13054053 0.08280784 -0.029190598 0.18748611 0.024675412 0.055500776 -0.07412435 -0.013892577
0.03760469 -0.0147443535 0.00013451156 0.006572779 -0.018584741 0.06575192 -0.0016174071 -0.07449502
-0.11733327 -0.105698265 -0.05795444 -0.06835015 0.09303705 -0.06609627 -0.06317936 0.18297525
0.053162154 0.06810548 -0.14685315 0.070126 -0.12115258 -0.004417479 0.057005182 0.041412104
0.022057358 0.035659622 -0.04410972 -0.15010563 -0.12908192 0.044854432 -0.0437986 -0.08581561
0.069455124 -0.013889922 0.0063378527 -0.0055497126 0.023746738 -0.040901612 0.11567089 -0.011499836
-0.025928816 0.0041639605 0.07416885 -0.072365336 -0.019695833 0.033359066 0.044335887 0.010098537
0.082223624 -0.025354555 0.045363903 0.06971902 -0.045275144 -0.06244325 0.06782634 0.035526667
0.018129975 -0.019567559 0.028494678 -0.00019078773 0.0066539496 0.01758425 0.032033175 -0.026669215
0.087611616 0.04959593 -0.0014248558 -0.002199147 0.0026555823 0.014572006 -0.05452275 -0.08750402
0.0726561 0.029639194 0.05268439 0.036954056 -0.01587414 0.08583612 0.13285251 0.136897
0.0109305 0.023990024 0.0014149515 -0.037541702 0.07424565 0.029328402 0.072690345 0.027603803
0.007919848 0.047078304 0.05772954 0.08174662 0.06494364 -0.08623381 -0.023299959 0.05550149
-0.03087795 -0.053639714 0.076888345 8.574226e-05 0.111766145 -0.011272591 -0.023937754 0.048349615
0.02861757 -0.03472798 -0.04487605 -0.028449008 -0.04541144 0.14861444 -0.051012233 0.030451631
0.006247699 0.08268884 0.02476389 0.018084003 0.020989006 -0.08496332 0.010714887 0.049927127
-0.0059205894 0.12487478 -0.13022257 -0.07912056 -0.038714316 -0.023584891 0.057366442 0.06866669
0.03792987 0.015502115 -0.08942516 -0.024264187 0.036204517 -0.00014369273 -0.06263109 -0.042219207
-0.028746812 0.064780995 -0.03995709 -0.08615704 -0.06804016 0.022227455 0.066708975 0.045248006
-0.02406281 0.00661112 -0.0027296576 0.0378337 -0.03863513 0.023758959 -0.048147436 0.0361275
0.013661244 -0.086747915 -0.09842939 0.025925731 -0.05389054 0.17635664 -0.00545619 0.06006243
-0.013853015 -0.07213331 0.15900327 -0.18547255 0.15880829 -0.11891131 -0.02993956 -0.01899489
0.012224827 0.13556714 -0.048310995 -0.0031428062 0.09744027 0.014856088 -0.01315097 -0.021635205
0.021851087 0.2166769 0.00998956 -0.10961014 0.094628766 0.20436794 0.0262489 0.10906844
0.024040278 0.15200467 0.036694627 0.17727813 -0.10247618 -0.12288899 -0.045838565 0.04619843
-0.0075200205 0.019533938 -0.035690498 -0.13702497 0.15565708 -0.077296056 -0.014013099 -0.014115439
-0.1159753 0.04034817 0.024919713 -0.046122633 0.19406925 -0.057348378 -0.12886259 0.1397709
-0.00551972 -0.039634652 0.08654518 0.20276411 -0.08053143 0.036247067 -0.15831602 -0.20454416
0.09360626 -0.0826112 -0.063958496 -0.019005546 -0.093432054 0.11458065 -0.068364084 0.14910586

lstm.weight_hh_l0 f4 [256, 64]
00000000: 1dd9 a63d 891a 393d 2154 18be b279 533e
00000010: 59c0 53bc 383c 9abd 3b60 88bc b396 42bd
00000020: c281 473d f681 cd3d c937 603d 4fb9 08be
00000030: df16 15be 80c9 253d ace6 3a3e 8a6a 9e3d
00000040: 17f6 0ebd 0090 be3c 8028 0b3e 77ba 6f3e
00000050: dd81 56be 1d6a 393e c119 20bb e060 14be
00000060: a421 68bd 184f 2dbc e400 253e f3a4 c73d
00000070: fa07 48bd 27be 2b3d 38f4 20be b6c8 61bd
00000080: 0a93 6f3d bf12 9ebd ba35 293d 6875 623e
00000090: cb4b e0bd 24eb 523d 45d5 0ebd 919d 64be
000000a0: a074 29bd 3209 713c 3e6d 23bd d53b 173e
000000b0: 042d 793e ab2e 2cbc 9605 373e b5de 50bd
000000c0: 16ea 3d3c ac2e 633c 09d9 9f3d 0c72 ffbc
000000d0: 879a 8b3d cc55 a7bd b763 c0bd da52 18bd
000000e0: 4348 493d bcfe fabd b12b 3abe f843 dc3d
000000f0: 19a8 fa3d 3bd7 8a3d b1f6 a23d 97ef 673d
00000100: fe8e debd 312e 8a3c f23d 063e 30d1 2abd
00000110: 5038 a3bd 523f 7dbd 35fa b23d eef5 cdbb
00000120: 561a 22bc 3ffc babc 26be cfbd 110a cb3c
00000130: 8984 593c abfb a03d ae38 8d3c 8e2f 07be
00000140: 8496 8e3d c713 733c 0b81 413c ea2a 14bd
00000150: 9e52 91bc 1d2e 973d cc47 d63b d866 8d3a
00000160: fe10 dfbd 4a1d a1bd 3570 843c 32af 22bc
00000170: 5e3f 0dbd cd56 0abb f65b 07bd 1313 e73d
00000180: 5d82 5ebc 13ab be3d 4099 8a3b 75c2 743d
00000190: 7977 38bc 7c34 98bd f5c7 9fbc e74c 86bd
000001a0: e969 f13c ed21 ecbc 844d ad3d 6ac1 0c3c
000001b0: 74ab 99bd e8a2 a13b 5d8b a53d 187d 283e
000001c0: bc1e be3d 5b4b bb3d a87b ffbb db95 f43c
000001d0: 936a 873c 6434 1f3c c5b8 e73d 0468 2f3d
000001e0: 2836 1e3a 9deb d73c a4d0 a83d ba62 8e3c
000001f0: a376 8b3c 44bf 343d ecf0 d5bd 8c3a 00bd
00000200: 9394 893d 151f aebc 6f04 013c 6e35 d73c
00000210: a9a6 8cbd 0da7 4abd 9839 00be b61d 133d
00000220: d69e 983d 28bb 79bd 7ce5 8b3d 3a6a ad3c
00000230: 8ae0 d23c 8459 24bd b83e a8bc fd1c 6e3d
00000240: 71bc b93d c978 523d a21f 24bd 4d54 7d3c
00000250: 3b74 353c 008d 5d3d 1043 823b c0bd 903d
00000260: 3740 823d 125d 20bd 4060 d03c d275 ddbd
00000270: a498 5abb 5147 f8bd d5bc 2d3d 162e 70bc
00000280: 3bdc 82bc eb39 a6bd 3de2 de3b 95e5 b8bc
00000290: 0187 dbbb 5e2c 463d 32f1 1dbd e347 99bd
000002a0: a955 d03d 4841 043d 6034 cbbb 6838 333d
000002b0: 0dc5 babd 106e ed3d a69d 9bbd a5bb 3dbd
000002c0: 3cec b83a 6e95 fabc 5bd9 1a3c c9e0 9e3c
000002d0: e44e 2bbc df61 193d bacd 93bc c7b2 07bd
000002e0: cf7d e03c 883e 3d3d d6be 06bd 9108 233c
000002f0: d41f e23b 8374 88bd 0c2b 1ebd dd3c 29bc
00000300: 090e cdbd cb9c 9d3d aa15 b33c a3a6 fd3d
00000310: bf41 d5bd e50a 0abe b84f 053e d708 2fbc
00000320: ce0b c1bc a5ff c93d 2ed2 d93d 7e17 573c
00000330: 53fa 02be d16e 86bd 47a6 613d 95e4 303b
00000340: 356f 66bc dcce e4bc 765a 763d 9054 be3d
00000350: 703a 84bd f57f d13d bff4 6bbd f858 813c
00000360: 7d5c c93d a99f 2cbd b9c8 acbd d77f 0ebd
00000370: 4aaf efbc 1c85 1c3e c16d f2bd 535f babd
00000380: a264 5cbd 938b c1bc 9c21 393e 0f89 48bd
00000390: bc85 26bd 5b34 543d 07d0 7ebd 31ab 19be
000003a0: 266f ebbd 4238 43bc 81d1 273d ceba bf3d
000003b0: 78da b33d c373 53bd 0474 363d 22a7 cd3d
000003c0: fd9f 363e a739 dabc 7cad 64bb e022 603d
000003d0: d54c 853d ddbf 09bd 7e9f a8bd f812 753d
000003e0: 7c23 a1bb 6ddd 4bbd d11a 28be afb3 013e
000003f0: 004c 85bd 9576 bb3d 36a1 4d3d 592b a03d
0.0814688 0.04519132 -0.14875843 0.20651892 -0.012924277 -0.07531017 -0.016647449 -0.047507
0.04870773 0.10034554 0.0547407 -0.1335194 -0.14559506 0.04047537 0.18252057 0.077351645
-0.03490266 0.023262024 0.13589668 0.23410974 -0.20947976 0.18106885 -0.0024429413 -0.1449008
-0.056672707 -0.010577939 0.16113621 0.097482584 -0.048835732 0.04192939 -0.15718162 -0.055123053
0.058489837 -0.07718419 0.041311003 0.221151 -0.10951956 0.05149378 -0.03487136 -0.22325732
-0.041370988 0.014711665 -0.039899103 0.14768918 0.24333578 -0.010509173 0.17873225 -0.05099364
0.011591455 0.013866108 0.07805068 -0.031182311 0.06816583 -0.08170661 -0.09394019 -0.03718839
0.04914118 -0.12255618 -0.1818073 0.107551515 0.12239093 0.06779333 0.07957209 0.056624975
-0.10867117 0.016867729 0.13109568 -0.041703403 -0.07969725 -0.061827965 0.087391295 -0.0062854206
-0.009893974 -0.022825358 -0.1014369 0.024785073 0.013276228 0.07860502 0.017238941 -0.13201734
0.06962302 0.014836258 0.011810551 -0.03617374 -0.01773959 0.07381842 0.0065393206 0.0010788096
-0.10891913 -0.078669146 0.016166786 -0.009929465 -0.03448426 -0.0021108866 -0.033046685 0.11282935
-0.013580886 0.093099736 0.0042296946 0.05975576 -0.011258953 -0.074318856 -0.019504527 -0.06557637
0.029469447 -0.02882477 0.084620506 0.008591035 -0.07503405 0.00493275 0.08083222 0.1645397
0.09283206 0.09145232 -0.0077967234 0.029856613 0.01653031 0.009717081 0.11314539 0.042823806
0.00060352916 0.026357466 0.0824292 0.01738106 0.017024344 0.044127718 -0.10446343 -0.031305835
0.067177914 -0.021255055 0.007874592 0.026270594 -0.068677254 -0.04947572 -0.1252197 0.035917006
0.074521706 -0.0609695 0.0683088 0.021168817 0.025741834 -0.04012443 -0.02053772 0.058133114
0.090691455 0.05138472 -0.04006923 0.015461993 0.011075075 0.054089546 0.0039752796 0.07067442
0.06359904 -0.03915126 0.02543652 -0.10813488 -0.003335514 -0.121229775 0.042416412 -0.014659425
-0.015974155 -0.08116516 0.006801872 -0.02257041 -0.0066994433 0.048382156 -0.0385601 -0.074844144
0.101725884 0.03228882 -0.006201312 0.043754965 -0.09119616 0.115932584 -0.075984284 -0.04632153
0.0014108489 -0.030588832 0.009451236 0.019394295 -0.010455821 0.037446853 -0.018042434 -0.03312948
0.02740374 0.046202213 -0.03289684 0.009950773 0.006900767 -0.06662848 -0.03861527 -0.010329452
-0.100124426 0.076959215 0.021860916 0.12385299 -0.10412931 -0.13480718 0.13018692 -0.01068326
-0.0235652 0.098632134 0.10635792 0.01312816 -0.12790804 -0.06564105 0.055090215 0.0026991714
-0.0140646 -0.02793067 0.060144864 0.09293473 -0.064564586 0.10229484 -0.057606455 0.015789494
0.09832094 -0.04214445 -0.08436722 -0.034789886 -0.029258389 0.15285152 -0.1183734 -0.09100213
-0.05380691 -0.023626124 0.18079227 -0.048958834 -0.040654883 0.051807743 -0.06221011 -0.1500671
-0.11495809 -0.011915268 0.040971283 0.09361802 0.08781904 -0.05162407 0.044544235 0.10041644
0.17834468 -0.026638819 -0.0034893444 0.05472076 0.06508795 -0.03363024 -0.08233546 0.059832543
-0.00491756 -0.049771715 -0.1641648 0.126662 -0.065086365 0.09153477 0.05020257 0.07820768

lstm.bias_ih_l0 f4 [256]
00000000: de0e 233c e357 153e 918b f33d 5e84 413d
00000010: de37 23be 89b5 923c c308 2abd 1d7b 603d
00000020: 89ec ffbd b1ad 31bd 0309 503d e89c 133e
00000030: 4745 fc3c 1d71 06bd 0ccc c53d 2849 853c
00000040: 4f00 8a3d 5b23 d4bd 5ee5 403d 4eb9 b3bc
00000050: 161c cfbd 981d 75bb 8ea1 753d 80c1 bd3c
00000060: 562e 9fba 65ea 1ebd 1aac 8abc e3f1 5abd
00000070: e995 9cbc 11c0 d1bd 4ae7 afbd 2016 0f3d
00000080: fbd1 9d3d 4a31 cf3c c38d 56bd 7345 1f3c
00000090: 8265 bd3c 3150 5e3d 6c4f f6bc 8301 c23d
000000a0: 0575 4ebe 709c c7bc 9fc8 8fbd e164 03bb
000000b0: f5a4 783d 9509 3a3d 7cbb 713d 07ed fcbc
000000c0: 8cd7 be3d 4e29 2e3c 7d93 2d3d 490b 7abd
000000d0: d03f 463e 8486 1e3c c959 b53b 35d8 71bd
000000e0: d2f6 2a3d 7abf fc3c acd8 493c 5d13 2c3d
000000f0: 657d a43d 708e 073b 9b0b 4c3d a5a7 b1bc
00000100: 636a 3c3d ce62 1b3b a9ac 333e 98ff 573d
00000110: d5d0 183e 73f0 243d 23bb a23d 366f 6e3d
00000120: 6051 0a3e bb97 0d3d 64fc 86bc c6de c83d
00000130: f2fe e33c 718f 8e3d d508 693d e259 c53d
00000140: 2a92 3f3e add7 a2bd bf67 373e 325c b53c
00000150: e01f 2bb8 3067 b03d f772 e23d d122 3e3e
00000160: 51ab 453e 16a4 1c3d b98d 8b3e ff9c a3bd
00000170: 2056 343e 83e0 b43b b9a4 c5bb 91f7 a73d
00000180: 82db ca3d ec02 80bc 17c7 14bb 7a7e ea3d
00000190: 70b6 383c 2eca c43d 50f1 e53c 478a 0a3e
000001a0: bfb7 d73d 0307 acbb a4b8 323d 635f 35bc
000001b0: 32c7 3a3e e74b 96bd 6cde 0f3e c7cb 303d
000001c0: a476 c63c 2775 593e 54fd 7639 a5cf a7bc
000001d0: 9591 853d efa1 223e 38de bb3d b4b3 fd3d
000001e0: 4d62 33bd ff2d 363d db5d 093e cf99 5c3e
000001f0: 2600 ba3d 0cac 7c3d b23f fa3d 81b2 f3bb
00000200: 0525 a03d c6c4 c23d 69ad 323c 50ac aa3d
00000210: 213a 80bd ef9a d4bd 8329 123d 8cc1 89bd
00000220: 5f7d 9f3b 400d be3c 1ad5 4fbd 3922 ddbd
00000230: 53bb 9a3c 95b0 273d 538c fdbc 17bc a8bb
00000240: d060 d03d d184 8d3d 0d0d 303c 83c0 87bd
00000250: fa51 12bd aed5 febd 143e 113d e730 09bd
00000260: de3e b9bb 098a debd db58 663d 6a72 b7bd
00000270: 6c8f 8c3d 5568 b43d 8cbb fa3d cca7 6e3d
00000280: f95a 9abc a252 21be 4ed9 86bd 8a19 a8bc
00000290: 5e03 6c3d 68dc babc 3454 e0bd f399 d4bd
000002a0: 9bd8 cebc c880 e9bd faad 23bd 372a 83bd
000002b0: 5ecb df3d 1877 ccbc fc87 13b9 3f5a d2bc
000002c0: 2a6a e5bd 5448 bcbd 6c60 27bc 10bd 323d
000002d0: e9d7 08be b87b 8b39 a97d f7bd 98ab a33d
000002e0: d9e9 40bd 6c42 5a3c 6d81 f5bd 2559 4f3d
000002f0: 95be c53d 6850 2ebd db94 43bb 9cd1 6bbd
00000300: 6410 b83d d9f5 2c3e 3020 133e 888f 4c3d
00000310: c00e a73d 1c0f ff3d fa5b e83d 4528 d93d
00000320: 6fa3 0d3d 3428 153e 39df 133d 116b 863d
00000330: 3c59 a53c 8296 8f3d 303a e23d 6d97 443d
00000340: ab5b 13bc bb52 bbbd 12ed 883d 2896 dc3c
00000350: 47ff a13d a83f 183d 9e18 803b 7ebc 163e
00000360: b08e d0bb dc1c 85bd 65b8 8a3d cfec 203d
00000370: 28aa 073e 7d7d 0a3d 51f9 e4bc 7341 a03d
00000380: 0c79 8a3c dd84 bbbc a191 07bd 43ff a9bc
00000390: bf98 743d f2b4 e63d 0034 3636 ae9e 533e
000003a0: a734 003e e8bb ab39 f835 2ebd c1ea 57bd
000003b0: 16a1 423c 92ab 513d 3ac3 413e d27b 0e3d
000003c0: e926 583e 46c5 ca3d abbc fbbc 22e2 0ebd
000003d0: 9d13 b63d a081 3dbb 5d1f ad3d 588e 9cbc
000003e0: b73f 933d b1a1 cd3c badb 933d aecd 523e
000003f0: e577 1f3e c268 b33d 9875 cd3d 958d 62bb
0.009952275 0.14584307 0.118918546 0.047245376 -0.1593928 0.017908828 -0.041512262 0.05480491
-0.124962874 -0.043378536 0.050789844 0.14415324 0.030794753 -0.032822717 0.096580595 0.016270235
0.0673834 -0.10358306 0.04709374 -0.021938946 -0.10112779 -0.0037401672 0.059968524 0.023163557
-0.0012144546 -0.038797755 -0.016927768 -0.053453337 -0.019114451 -0.10241712 -0.08589037 0.03493321
0.07706066 0.025292058 -0.05238129 0.009721148 0.023119692 0.054275695 -0.030067168 0.094729446
-0.20161827 -0.024366587 -0.07020687 -0.0020049142 0.06070419 0.045419294 0.05901669 -0.030874742
0.09318456 0.010629965 0.042376984 -0.06104592 0.1936028 0.009675626 0.005534385 -0.05904408
0.041739292 0.030853022 0.012319725 0.042010654 0.080317296 0.0020684265 0.049815755 -0.021686384
0.045999896 0.0023710015 0.17546333 0.052733988 0.14923413 0.040268373 0.0794585 0.058211528
0.13507605 0.03456853 -0.016477771 0.09808116 0.027831528 0.06960953 0.05689319 0.096362844
0.18708101 -0.07951293 0.1791067 0.022138689 -4.0799263e-05 0.086134315 0.11057084 0.18567969
0.19303633 0.038242422 0.27256563 -0.07988929 0.17610979 0.005519928 -0.0060315994 0.082015164
0.09905149 -0.015626393 -0.0022701675 0.11449905 0.011273965 0.09608875 0.028069168 0.13529311
0.10533094 -0.0052498593 0.04363312 -0.011070105 0.1824005 -0.07338696 0.14049691 0.043163087
0.024226494 0.21236096 0.0002355476 -0.020484755 0.06521908 0.15882085 0.09173244 0.12387791
-0.04379492 0.04447746 0.1341471 0.21543048 0.090820596 0.061687514 0.1221918 -0.007437051
0.07819561 0.09510188 0.010905602 0.08333647 -0.06261087 -0.10381114 0.03568412 -0.06726369
0.0048672403 0.023199677 -0.05074034 -0.10797543 0.018888151 0.040939886 -0.0309507 -0.005149375
0.101747155 0.06910098 0.010745299 -0.066285156 -0.03572271 -0.124431 0.035459593 -0.033493903
-0.0056532463 -0.10866172 0.056237083 -0.089573696 0.06863293 0.08808962 0.12242803 0.058265492
-0.018842207 -0.15754178 -0.06584416 -0.02051999 0.0576204 -0.022810176 -0.109535605 -0.10380926
-0.02524977 -0.11401516 -0.03996084 -0.06404536 0.10927461 -0.024959132 -0.0001406967 -0.025677798
-0.1120189 -0.09193483 -0.01021586 0.043637335 -0.13363613 0.00026604324 -0.12084515 0.07991713
-0.047098015 0.0133215 -0.11987577 0.050622124 0.09655491 -0.04255715 -0.0029843363 -0.057572946
0.08987501 0.16890658 0.14367747 0.04994157 0.0815711 0.12454054 0.11345668 0.10603384
0.03457969 0.14566118 0.036101554 0.0656339 0.020184152 0.07011129 0.11046255 0.047995973
-0.008994023 -0.09146639 0.066858426 0.026927069 0.079100184 0.037170082 0.0039091846 0.14720342
-0.006364666 -0.06499645 0.06773452 0.03928834 0.13248503 0.03381108 -0.027950915 0.078249834
0.016903423 -0.022890503 -0.033097867 -0.020751601 0.059715983 0.11264981 2.7150381e-06 0.20666
0.12520085 0.00032755663 -0.042531937 -0.052714113 0.011879226 0.051189013 0.1892213 0.034786053
0.21108593 0.09900908 -0.030729612 -0.034883626 0.0889046 -0.0028916374 0.08453248 -0.019110844
0.07189887 0.025101515 0.07219644 0.20586273 0.1557308 0.08760215 0.10032195 -0.0034569253

lstm.bias_hh_l0 f4 [256]
00000000: c3d2 c1bd 3d58 f33d 1bdf b23d a607 50bb
00000010: 45a5 d6bc bd2b 4abd 06ec 99bc 6955 653d
00000020: c357 00bd 5e27 a5bd 4bc1 adbb 6f96 043e
00000030: 3323 113d 23f8 38bd bb67 d53d 7409 713d
00000040: 8e76 be3d c8b5 52bd f2fb 793d 9626 d5bc
00000050: b1e8 debd bc9e 61bd cb6e e63b 5fd2 8f3d
00000060: a4cb 193d 7b24 6cbc 9a10 97bc 9bfe ffbc
00000070: b9b4 63bd eadf c0bd 3f94 15bd 748a 1dbd
00000080: 059b b53d 1119 71bd a270 153d b2a8 2c3a
00000090: 29c2 243d 5377 1a3b bcaa f23c a802 0d3e
000000a0: eafa 11be e349 b9bc 896d febc 7aba a43b
000000b0: 2032 23bd 048d 74bd 8812 8a3d b31c 09bd
000000c0: ffdb d73d 21d5 e4bd 2a0d 253c d3bb 80bd
000000d0: 7fad 1f3e de24 883c 87f6 1b3d 4d96 c23c
000000e0: c3ac 62bd 7572 ee3c 6613 74bd fbe9 9b3d
000000f0: 6c0a 2a3d 7850 213d 2d93 01bc 3504 20bd
00000100: 1762 323e f48a 0e3e 8e39 693e 100b f93d
00000110: 2545 c93c 7cae 3c3d f30a cc3d 413e bb3d
00000120: ebc3 6c3d efcc 9c3d c44e 583d 7091 053d
00000130: e9cc a2bb ce25 c13d cc74 853d c3da 123e
00000140: 01ab bc3d 2bdc ed3c c3e4 303e a2aa 673d
00000150: 2878 2dbc 6343 dd3c 1ea8 743d 558a 833d
00000160: 19c1 203e d199 313e 7a87 983e 7f37 73bd
00000170: ca8f 603e a393 0e3d eb09 6dbd 9de7 843d
00000180: 7894 d63d 2f9c ab3c f221 a6bc 2fce 213e
00000190: ad17 bf3c 20d0 ef3d aff5 99bd 9af2 133e
000001a0: fe69 243e 1661 db3c 2062 643d ac06 083d
000001b0: 6ea1 193e 2e61 8dbc 48b5 3c3e 696d 483d
000001c0: 7ea0 9c3d c3cb 573e 4372 593d 8b74 9d3d
000001d0: 1dee 143e 6a1b 6d3e 4f91 d03d 03d5 ac3d
000001e0: 6528 2ebd 8057 673d 43f0 f73c 778c bf3d
000001f0: ccfb a93b 061b ed3c 385b c93d dc90 f7ba
00000200: bdb5 c3bd ab74 95bc b764 87bd f68a 963d
00000210: 4a7b fa3c a560 75bd 8e79 bebd aecb 78bd
00000220: eeb4 1f3e a605 053e 3893 7c3c 39d2 b9bd
00000230: 9443 5b3d 7fe3 013d ac27 723c f062 7abd
00000240: b0d5 0cbd 569e 153e 5c5f cdbd af73 34bd
00000250: 9120 cc3d 4820 f8bc 1f40 7bbd b740 043d
00000260: 9bbc 7a3d 2318 8bbd 182b 6ebd cb25 dcbd
00000270: 3da3 4d3d d747 a3bd 9bf0 ed3d 0242 bdbd
00000280: b164 323d 6a26 d9bc a707 9e3d d50c bb3d
00000290: ceac adbd ddf0 0ebd 4d6b 9ebd 1b11 a23c
000002a0: d323 53bd c76c f13a 6c92 853c 25d1 c73d
000002b0: 8f47 8abc 38bd 44bd 0a14 0b3d dab2 f73d
000002c0: 9cc6 c23d 34ca 15be 71da 02bd 8873 0f3d
000002d0: c594 363d 084c 423b c198 613d 6656 e2bd
000002e0: 2ef5 ac3d 8266 cabd 210b 733c 26e1 51bd
000002f0: 7583 b3bd fa63 a13c 316f 92bd 8c6d 9cbd
00000300: ea2e fe3d 2851 c63d 758a 133d 76bf 473d
00000310: 828b 4c3a ad32 c63d a194 b73d e00b 253d
00000320: 48e2 f3bc 7f78 8d3d e3d2 bf3d 2567 dd3d
00000330: 6c66 38bd 22fc 483d bd9c 023e b492 66bd
00000340: c413 64bc 1fd8 c2bd e99c ff3d c114 90bc
00000350: 1021 b53b ff5c 3c3d a0b3 883d 63d7 923c
00000360: 885b c63d 2a87 bc3d 03f0 723c e346 88bb
00000370: c06b bcbc 5fb8 a2bb 8e49 883d 98c3 373e
00000380: 4b30 05bc e602 053e bb5e 55bd 6944 9abb
00000390: d1ac fc3d f877 c53d 3fed bcbc f78d 133e
000003a0: d9f6 303e 91e9 39bc 9118 81bd a03d 0dbc
000003b0: eb08 b63d 2d80 cc3c 9ad9 db3c d919 a7bc
000003c0: 02f3 c53d 7366 09bd 14cc b93c 5cf2 6f3d
000003d0: e63e dd3d 1c47 b13d 1b31 9e3d 9309 883d
000003e0: b357 573d 415e 8fbd 3db4 653d 979e 2c3e
000003f0: a3b5 e13d b80a 97bd b088 a13d 66bd 3ebd
-0.09464028 0.118820645 0.0873396 -0.003174284 -0.026201854 -0.04935812 -0.018789303 0.055989657
-0.031333696 -0.08064149 -0.0053025833 0.12948011 0.03543396 -0.045158517 0.10420176 0.058846906
0.09299956 -0.05144289 0.06103129 -0.026019376 -0.10884226 -0.05508302 0.0070322505 0.07022547
0.037547722 -0.0144129945 -0.018440533 -0.031249335 -0.055592272 -0.09417708 -0.03651833 -0.038462117
0.08867458 -0.058861796 0.03648437 0.0006586417 0.040224228 0.0023569658 0.029622428 0.13770545
-0.14255872 -0.02261824 -0.03105809 0.0050271126 -0.039842725 -0.059704795 0.06741816 -0.033474635
0.10540008 -0.111734636 0.010073939 -0.062858246 0.15593527 0.016619142 0.038076904 0.02375331
-0.05534054 0.029107312 -0.059588812 0.076129876 0.041513845 0.03938338 -0.007908625 -0.039066512
0.17420231 0.13920194 0.22775862 0.12160313 0.024569103 0.04606484 0.09963026 0.09142733
0.05780403 0.076562755 0.05280949 0.032609403 -0.004968275 0.09431039 0.06516418 0.14341263
0.09212304 0.029035648 0.17274766 0.056559213 -0.0105877295 0.027009672 0.05973064 0.06422869
0.15698661 0.17343833 0.2979086 -0.059379097 0.21929851 0.034808766 -0.057870787 0.06489489
0.10477537 0.020948498 -0.020279858 0.15801309 0.02332672 0.117096186 -0.075175636 0.14448014
0.16056058 0.026779693 0.05575764 0.033209488 0.15002987 -0.017258253 0.18428528 0.048932467
0.07647799 0.21073823 0.053087484 0.076882444 0.14543958 0.23154989 0.101839654 0.08439066
-0.042518992 0.05647993 0.030265933 0.093529634 0.005187487 0.02894355 0.09831852 -0.0018887776
-0.09556148 -0.018244108 -0.06611007 0.073507234 0.030576367 -0.05990662 -0.093005285 -0.06074112
0.15596363 0.12990436 0.015415959 -0.090733 0.053531244 0.031711098 0.014779966 -0.06112951
-0.034383476 0.14611182 -0.10027954 -0.044055637 0.09967149 -0.03028883 -0.061340448 0.03228828
0.061215024 -0.06791713 -0.058146566 -0.10749396 0.050204504 -0.07972687 0.116181575 -0.092411056
0.043553058 -0.026507575 0.07716303 0.09133307 -0.084802255 -0.034897674 -0.0773531 0.019783547
-0.051547837 0.0018419259 0.016305171 0.09756688 -0.016879825 -0.048032016 0.033954658 0.1209466
0.09510538 -0.14627916 -0.031946603 0.03502229 0.04457547 0.002964737 0.055077318 -0.110516354
0.08445202 -0.09882833 0.014834196 -0.05124011 -0.08765308 0.019700993 -0.07150114 -0.07638082
0.12411292 0.09683448 0.036020715 0.048766576 0.00078027707 0.096776344 0.089638956 0.040294528
-0.029770985 0.069077484 0.09366395 0.10810689 -0.045019552 0.049068578 0.12755103 -0.05629225
-0.013920728 -0.09513878 0.124811 -0.017588021 0.005527623 0.045987125 0.06674886 0.01792497
0.09685427 0.09205468 0.014827731 -0.004158841 -0.023000598 -0.0049658264 0.066546544 0.17945707
-0.00812919 0.12989387 -0.052092295 -0.004707862 0.123376496 0.09642023 -0.023062347 0.14409624
0.17281665 -0.0113471905 -0.06303514 -0.00862065 0.0888842 0.024963463 0.026837159 -0.020398067
0.09665491 -0.03354497 0.02268032 0.05858074 0.108030125 0.08656141 0.0772421 0.06642451
0.05257387 -0.070003994 0.05608009 0.16857372 0.110209726 -0.07375091 0.07887399 -0.046567343

fc1.weight f4 [32, 64]
00000000: 4f06 17be 5ada 0dbd 4c45 9cbc 4e7d cabc
00000010: c89c f9bc c42c 6abd fad1 2b3e 023b 58bd
00000020: cb36 ebbd d35e 55bd 70a1 22be 681f e83d
00000030: 4357 643d d0a0 ae3c a46e 893c eff0 8bbd
00000040: 324a 83bd 02ce 8dbb d40d 1f3d f112 02be
00000050: 4487 b3bd 51ca 06bd 45d5 ae3c cf35 053e
00000060: 568a a03c a329 c8bd 6797 01be 2eea 0f3e
00000070: f28f 0c3d 438d f83d 02f4 81bd a881 1d3e
00000080: b047 503d 2659 0d3d ffec 19bd 6370 bebd
00000090: 7f5c 92bd d548 d13d de95 bf3d 1965 303d
000000a0: 5b22 b73d da1e bcbd 567f c2bc dd34 c23d
000000b0: 4efb a0bd 9b34 3dbe 89b1 a0bd 06c9 ce3d
000000c0: 149f 4dbd 6fd0 c83d 2df1 343c fce5 003e
000000d0: 378b dbbd a3eb c03d c5e8 c73d 868a e73d
000000e0: 50ca 963d 7c6c c6bd 0d0d 6a3d d9c0 4c3d
000000f0: f1ea 4fbc 49c0 813d 7640 72bd 1c2d a5bd
00000100: 7d12 2fbe 754c 33bd d6d2 813c a7a7 41bd
00000110: c9f6 90bb 159e 1cbc 5a4f 243e e78f f23d
00000120: 27b8 95bd f080 a5bd 56ef e0bd 6f8e 723d
00000130: fcb8 cfbc ec27 133d b9cd f33c a5ad 1cbe
00000140: 7b7b 06be 47dc a5bd e064 87bd 931e 44bd
00000150: 36c9 97bb 49bd 42bc 3240 063e 4eb7 1c3d
00000160: fb38 fbbd edae 27bd ef06 89bd 84d5 063e
00000170: 66cf 73bd 0763 8cbd 15ec b9bb 48ec 0a3e
00000180: 2d25 15be e5fd cc3d 5ff4 b03c 362c 9f3d
00000190: efb2 f7bc d81a 6fbb ef73 3d3d 03d6 4abd
000001a0: fe04 103e a5ee 983d 02fd d93c 2664 0f3e
000001b0: cbc1 b6bd ad42 39be 8283 3fbe 4712 343d
000001c0: a5db febd 8738 0b3e 87c9 aabd 96c2 2a3d
000001d0: 9a39 8ebd dfb8 74bd ddfa da3d 4910 88ba
000001e0: 70ee 2b3e 5568 223d 02e5 ec3d eafc d8bd
000001f0: 5a53 bdbd 9020 dc3d 66e3 e8bc 4761 663d
00000200: b980 d73d 14bc b23d 2686 23bd ecb5 003d
00000210: 37e5 16bd 6089 eabd 8be0 02be 79d7 90bd
00000220: 1d1f e63c 903d e63d c883 9fbd 1226 2cbd
00000230: 6204 cbbd 7258 86bb 88e5 f23d 4acd 9d3d
00000240: 9cb4 abbc 6d85 29ba 64ba 85bd 0b85 5bbc
00000250: 8efb 8b3c 2c89 183d 0282 eebd 37c9 32be
00000260: 8079 84bd 1870 cabd 32c5 a63d a5c6 b83c
00000270: dd8a 023e 36db ebbd ac26 54ba b974 0e3d
00000280: a1b8 82bc 5bd7 4e3d c766 c9bd 49d2 f53d
00000290: 47d9 9abd e4c1 b5bb e244 c6bd d661 ebbd
000002a0: 538a c93d 2ad3 72bb b12f babc f48a 353b
000002b0: 4626 d63d d940 50bd fcfb 7d3d 59c3 49bd
000002c0: e88a d6bd 9a85 37bb 1f06 00bd 40c6 56bc
000002d0: 36b9 173d 3344 ef3c 19b5 7fbd 88dc 2dba
000002e0: 6332 fcbb 8899 a3bc c7b4 79bc 9eda 21bd
000002f0: a528 1fbc 3870 183d d202 183b ce5f 85bc
00000300: 81e4 513d 14de a33d 8316 e9bd 30d4 04bd
00000310: 6094 08bb 4bd3 ebbd 3155 4b3c 0d07 25be
00000320: 50fc 043e 25c8 df3d 5ea2 023d 58b5 debd
00000330: a5c7 46bd b326 163d c25b 1e3d 6b98 503c
00000340: e809 913d e80d fb3c d1a0 213d a311 c73c
00000350: bb54 543d 09e6 96bc f8ba 11bd 9e83 34bd
00000360: 7b4c 3a3c 5889 02bd f258 bf3c 94e6 df3c
00000370: a791 dd3d 1e57 90bd a331 613c dbd4 883c
00000380: c655 8f3d 6d0d 213c 5ac1 acbc c195 233b
00000390: c9a5 a0bd fac5 b63d 6a34 29bd c0f6 4bbe
000003a0: 7eae a53d c3df 26bd 651a 4ebd 8b48 2c3d
000003b0: 1828 8dbc 499f 1cbe a8a3 95bd adbb 46bd
000003c0: 6b36 883c 90ba 703d a088 9abd 7b05 02bd
000003d0: 1117 683c 6fe1 873d 5a76 c1bd 69e2 b4bc
000003e0: 079e 983c db33 3ebd 938c 5bbd a2db ddbd
000003f0: 9af0 e6bd 984c c8bc 3918 bf3d e20f d6bb
-0.147485 -0.034632064 -0.019076012 -0.024717953 -0.030470267 -0.057171598 0.16779318 -0.05279065
-0.1148506 -0.052092385 -0.15881896 0.11334115 0.05574728 0.021316916 0.01677639 -0.06833064
-0.06410636 -0.0043275366 0.038831547 -0.12702538 -0.08766034 -0.032907788 0.02134193 0.13008808
0.019597214 -0.097735666 -0.12655412 0.14054176 0.034316964 0.121363185 -0.06345369 0.15381491
0.050849617 0.034508847 -0.037579533 -0.0929878 -0.071465485 0.1021897 0.09354757 0.043065164
0.089421 -0.09185572 -0.02374236 0.09482739 -0.078604326 -0.18477099 -0.07846362 0.10096936
-0.050200537 0.098053806 0.011043829 0.12587732 -0.107199125 0.09419944 0.09761194 0.11305718
0.07362807 -0.096886605 0.057141352 0.0499886 -0.012690292 0.063355036 -0.059143506 -0.080652446
-0.17096896 -0.043774087 0.015847605 -0.047279026 -0.0044239503 -0.009559174 0.16045895 0.118438534
-0.07310515 -0.080812335 -0.1098315 0.059217867 -0.025356762 0.035926744 0.029761182 -0.15300615
-0.13133042 -0.08098655 -0.06611037 -0.04788072 -0.0046321405 -0.011885949 0.13110426 0.03826075
-0.122667275 -0.040938307 -0.066907756 0.13167387 -0.059523962 -0.068548255 -0.005673895 0.13566697
-0.14564963 0.10009364 0.0216009 0.077721044 -0.03023669 -0.0036484506 0.04625314 -0.049520504
0.14064404 0.07467393 0.026609901 0.14003047 -0.08923682 -0.18091841 -0.1870251 0.043962743
-0.124442376 0.13595782 -0.083392195 0.041689478 -0.069445804 -0.05974662 0.106923796 -0.001038083
0.16790175 0.03965028 0.11567117 -0.105951145 -0.09244414 0.10748398 -0.028428745 0.056245115
0.10522599 0.08727279 -0.039922856 0.031423494 -0.03683969 -0.114519835 -0.12780969 -0.07072348
0.028091008 0.11242211 -0.07788807 -0.042028494 -0.09912945 -0.004099899 0.11860186 0.077051714
-0.020960145 -0.00064667204 -0.06529692 -0.013398419 0.017087724 0.037240192 -0.11645891 -0.1745957
-0.06468487 -0.098846614 0.08143081 0.022555659 0.12748285 -0.115164205 -0.0008092921 0.034779284
-0.015957179 0.050498348 -0.09834056 0.12002999 -0.075609736 -0.005546795 -0.09681107 -0.1149327
0.098408364 -0.0037052133 -0.02272782 0.002770123 0.10456519 -0.050843094 0.06200789 -0.049258564
-0.10475713 -0.0028003217 -0.031255838 -0.01310879 0.037041865 0.029207325 -0.062428568 -0.0006632288
-0.0076964363 -0.01997067 -0.015240855 -0.03951513 -0.00971428 0.037216395 0.002319504 -0.016281035
0.05124331 0.080013424 -0.11381247 -0.03242892 -0.0020840392 -0.1151491 0.012410448 -0.16115971
0.12986875 0.109268464 0.031893127 -0.10874432 -0.04853024 0.036658 0.038661726 0.012731652
0.070819676 0.03064628 0.039460007 0.024300402 0.051838618 -0.018420236 -0.035578698 -0.044070832
0.011370773 -0.031869262 0.023357842 0.027331628 0.108187966 -0.07047866 0.0137447445 0.01670306
0.06998782 0.009829861 -0.021088291 0.0024961086 -0.07844121 0.0892448 -0.04130975 -0.19918346
0.08089922 -0.04074074 -0.05031814 0.04206137 -0.017231032 -0.15295137 -0.073066056 -0.048518825
0.016627511 0.05877167 -0.075455904 -0.031743508 0.014165656 0.06634795 -0.09446402 -0.022080617
0.01863004 -0.046436172 -0.05360086 -0.10832907 -0.1127636 -0.024450585 0.09330792 -0.006532655

fc1.bias f4 [32]
00000000: e982 8abb 2bd1 f13c 5b83 053e 3c7a ecbc
00000010: e8b3 86bc 0341 bd3d d49a 083e d134 9a3c
00000020: feee f03d 4c2c 083e b93a 433d 0435 cc3d
00000030: 34cf 773c 007f 0c3e 84f3 883d 8d8d b73d
00000040: 9900 953c a8fe 463d c04e 1a3d 654b 983d
00000050: e736 c83d 39a5 9b3d 91a9 323e 01cf b63d
00000060: b4c8 eb3d d8e0 f43d 05ad c13d 6850 3d3c
00000070: cabc 84bd c62b 1f3d 68b0 acbc 13ef ea3d
-0.0042270315 0.029518684 0.1303839 -0.02886688 -0.016443208 0.092409156 0.13340312 0.018824013
0.11764334 0.13298148 0.047663424 0.099710494 0.015125085 0.13720322 0.06687072 0.089625455
0.018188762 0.048582703 0.037672758 0.07436255 0.09776097 0.07599873 0.17447497 0.089262016
0.115128905 0.11956948 0.09456829 0.011554815 -0.06481321 0.038860105 -0.02108021 0.11471381

fc2.weight f4 [1, 32]
00000000: 9c7d 293e 070b 083e 823e 94bd d0fa c5bd
00000010: 4cf5 143e a192 0abe 9744 df3d bfc0 173e
00000020: 7028 253e 97e9 acbd e48c 1c3e ff49 bebd
00000030: a08e c9bd af44 c5bd 4555 f2bd ed4c 263e
00000040: 8c2a 90bd d362 243e f8a1 42bd 1b48 f43d
00000050: d213 2a3e e581 e33d 04c8 e43d e1ad 243e
00000060: 7026 f03d bc17 ddbd f319 a0bd 4102 2c3e
00000070: 8189 d1bd 92aa 06be f88e f6bd 41c6 bebd
0.16551822 0.13285457 -0.07238485 -0.09666979 0.14546698 -0.13532497 0.10901754 0.1481962
0.16128707 -0.08442991 0.1528812 -0.092914574 -0.09841657 -0.09632241 -0.1183267 0.16240282
-0.07039365 0.16053323 -0.047517747 0.119278155 0.16609123 0.1110876 0.111709625 0.16081955
0.11726081 -0.107955426 -0.078174494 0.16797735 -0.10231305 -0.13151005 -0.12038988 -0.09315158
